model_saves/Seq2Seq/first_run/0.model (torch, 868371 bytes, 10 tensors)

encoder.lstm.weight_ih_l0 f4 [512, 72]
00000000: 7fc2 8d3d c082 6cbb 2c3f c63c 0956 b3bd
00000010: 2be5 5f3d c45b 223d 5fd1 963d bc32 2c3d
00000020: 3284 473d 89f3 8bbd f72c 88bd 91d4 abbd
00000030: c6ce db3c d41b 6ebc 07f2 113d 9eb0 983d
00000040: 09d8 64bd 2c8f a7bd 5b87 7db8 d5e6 813b
00000050: fcd7 8c3c 19c3 9f3d 014f 8ebd 00d1 b239
00000060: dbe7 a5bd a222 613d ea78 5a3d 81ad ad3d
00000070: 2183 663c 9adc 813d c701 59bd 5552 1ebd
00000080: 5ac0 5e3d a039 c1bc 1ec1 59bd 3850 aa3c
00000090: 9709 87bd 8f97 213d f62d 1c3d 1afe ac3d
000000a0: d850 b1bd 8da6 e4bc ace3 863d ae4c 233c
000000b0: f179 46bd 03d9 9a3d 4f0e abbc 5568 47bd
000000c0: e9fe 783c ee61 64bc 8507 26bd ace8 97bd
000000d0: 86c9 673d a9a5 ab3c f2c7 993d 707c a23d
000000e0: 0eea 43bd 9515 1bbd 1799 7e3c 3af0 843d
000000f0: 605d 1cbb b842 96bc 7dc3 af3d 80f0 8fbc
00000100: 6f97 9f3d 046f e8bc 3b07 a73d 2a28 3bbd
00000110: 68c5 063c 9602 89bd 2ab5 523d 5689 65bd
00000120: fef8 5d3d 5ab3 3bbd 1f20 913d e018 3f3d
00000130: a691 19bd f2a5 e4bc e9bf 32bd 60d5 803c
00000140: 9b77 273d 8c70 ee3c 7300 643c 1f43 abbd
00000150: cfd2 33bc 6f13 123d d3e1 2bbd 74df 2d3c
00000160: 64fe 7cbb 772d ef3c 4725 19bd a405 27bd
00000170: 094c 6b3d 3ad9 263d e113 41bd 10f1 183c
00000180: 2fc5 873d 86c4 0c3d 82c5 5d3d d489 45bd
00000190: 7523 b63c 2d7e 64bc 7475 bd3c 286a 2ebc
000001a0: 4417 9f3c b680 3c3d 3c26 8f3c 60a7 a9bd
000001b0: 3e40 4dbd 1673 00bd c240 273d 1632 1f3d
000001c0: ceb6 813d 2c4a 80bd 9a35 943c cf0f f4bc
000001d0: edcf e5bc 7f55 a3bd f4b1 8c3d ab19 e33c
000001e0: e1b9 db3c 1c2b 3cbd cc6a 81bc fad2 5a3d
000001f0: bd24 a53c 36ad 5dbd d6e0 5b3c 0b4d 34bc
00000200: c09f 44bd 571c a0bd 0975 4fbd 22e2 903d
00000210: 2aa3 8ebd 7eb9 543d efc3 953d 18cf 153d
00000220: 7eb4 483d 1752 9a3d 429a 22bd 98c1 50bd
00000230: 0040 ec39 449b 93bd 9a44 413d 2930 803d
00000240: a485 d43c b824 54bc 95a9 993d cbaf 203b
00000250: f1f2 88bd cbc9 2a3d ccf9 093d 033c b03d
00000260: db18 733d 8db3 74bd 18fb cc3c 3339 85ba
00000270: 59e7 a9bd 2284 2f3b 8800 533b d763 4bbd
00000280: ff81 47bc 2bba b8bc ed24 8cbd b3a8 b1bd
00000290: afb1 08bd 7611 413d dc97 c73c 24eb 003d
000002a0: a040 c13b 5486 26bd b31e 8e3d e1ba 483d
000002b0: 7e5f 723d 7f9a 88bc 1419 e33c c4d3 d63c
000002c0: 782a b6bc b683 4f3d d60d 683d 46c4 093d
000002d0: 03a0 0f3c 137f b5bc 8125 a13d 0e6c afbd
000002e0: 0893 6cbd f5f5 b33c 9ad5 b23d 6286 9bbd
000002f0: 5163 ad3c d7c6 1abd e833 883d 9a09 00bd
00000300: 6775 0fbc bebf 1cbd 487c 3a3d 5ff3 8cbc
00000310: d707 c93c e64d 343d 4ffd 893d 612b 90bc
00000320: b470 1a3d d214 afbd 05b3 9ebd 0f49 aa3d
00000330: 5324 9d3d ca4c 313d 906e 8c3c e2be 95bd
00000340: f8ef 36bd c858 2bbc 899e 833d 3146 00bd
00000350: d855 f9bc 1000 a1bc c006 5abb 65b5 903d
00000360: 4ff9 9bbd 8021 16bc 22bf 96bd 674a b23d
00000370: 04fc f0bc faa7 b5bc b4c9 0fbd 4e2b 493d
00000380: 8873 dcbc a0c4 32bd 73ca 14bd 410d 17bd
00000390: a837 893d 7b70 9639 9601 473d 8d2d 1f3d
000003a0: 9a4c 82bd ba99 053d 079b d33c a59a 71bd
000003b0: c209 413d e056 d23b 40e8 bfbb ee10 163d
000003c0: 47e7 b1bd 404d c93c 30cd 86bb 71c6 be3c
000003d0: 316f 003c 039f 7f3d d7cb a0bd ae73 363d
000003e0: dfc5 9e3d 20f3 63bc 2022 853b a423 a1bd
000003f0: 1dc5 8a3d 13fc 2dbd ef2c 523c 5a16 9a3c
0.06921863 -0.0036088675 0.024200045 -0.08756644 0.05466191 0.039638296 0.07364153 0.04204057
0.048710056 -0.0683356 -0.06649201 -0.08390153 0.026831996 -0.014533002 0.035631206 0.07455562
-0.05587009 -0.08181605 -6.044596e-05 0.003964285 0.017192833 0.07800884 -0.069486625 0.00034106523
-0.081008635 0.05496467 0.05333797 0.08480359 0.0140693495 0.063409045 -0.05298021 -0.038652737
0.05438266 -0.023587048 -0.053162687 0.020790204 -0.06593626 0.03945118 0.03812977 0.084469035
-0.08657998 -0.027911449 0.06586394 0.009967012 -0.048456136 0.07560923 -0.020880846 -0.048683483
0.015197494 -0.013939364 -0.040534515 -0.074174255 0.056588672 0.020953016 0.0750884 0.07933891
-0.047830634 -0.03786238 0.015539429 0.06491132 -0.0023859367 -0.01834236 0.08582208 -0.017570734
0.077925555 -0.028373249 0.08155676 -0.0456926 0.008225776 -0.06689946 0.051442303 -0.056039177
0.054192536 -0.04582534 0.07086205 0.046654582 -0.037492417 -0.02791116 -0.04364005 0.015726745
0.04088555 0.0291064 0.013916123 -0.08362412 -0.010975554 0.035663065 -0.04196341 0.010612357
-0.0038603777 0.029196484 -0.037389066 -0.040776864 0.05744556 0.040734507 -0.0471381 0.0093348175
0.06629407 0.034367107 0.054143436 -0.048227146 0.022233704 -0.013946098 0.023127295 -0.010645427
0.019420274 0.046021186 0.017474286 -0.082838774 -0.050110094 -0.031359755 0.040833242 0.038866125
0.06333695 -0.06264147 0.018091965 -0.029792694 -0.028053248 -0.079752915 0.06869879 0.0277222
0.026822032 -0.04593955 -0.015797995 0.05342386 0.02015912 -0.054120265 0.013420304 -0.011004697
-0.048003912 -0.078179054 -0.050648723 0.070743814 -0.06964715 0.05193471 0.07312762 0.036574453
0.049000256 0.07535189 -0.039697893 -0.050965875 0.0004506111 -0.07207349 0.047184564 0.06259186
0.025942631 -0.012948208 0.07503048 0.0024518843 -0.066869624 0.04169635 0.03368549 0.08605196
0.059349876 -0.059741545 0.025022075 -0.0010164141 -0.08296079 0.0026781638 0.0032196362 -0.04965576
-0.01217699 -0.02254971 -0.068429805 -0.08674755 -0.033372577 0.047135793 0.024364404 0.031474248
0.0058975965 -0.04065545 0.06939449 0.049006347 0.0591731 -0.016675232 0.02772192 0.026224025
-0.022237048 0.05066272 0.05665382 0.033634447 0.008766177 -0.02215532 0.078684814 -0.08565532
-0.057757407 0.021967867 0.087321475 -0.07593991 0.021165522 -0.037787285 0.06650525 -0.031259157
-0.008756018 -0.038268797 0.04552868 -0.017205892 0.024539871 0.044019602 0.06737768 -0.01759881
0.03770514 -0.08548893 -0.07748989 0.08314716 0.07672944 0.043286122 0.017142564 -0.07311799
-0.044662446 -0.010458179 0.064267226 -0.03131694 -0.030436441 -0.01965335 -0.0033268183 0.07065848
-0.07615911 -0.00916326 -0.073606744 0.08705597 -0.029417045 -0.022174824 -0.03510447 0.049113564
-0.026910558 -0.043644547 -0.036325883 -0.036877874 0.06700069 0.00028694034 0.048585497 0.0388618
-0.06362267 0.03261731 0.025830759 -0.05898537 0.047128446 0.0064190477 -0.005856544 0.03663724
-0.08686691 0.024572968 -0.0041138157 0.023287984 0.00783901 0.062407505 -0.07851379 0.044543914
0.07752585 -0.013912946 0.004062906 -0.07868126 0.067758776 -0.042476725 0.012828096 0.018809486

encoder.lstm.weight_hh_l0 f4 [512, 128]
00000000: 0470 1c3d 9f41 a0bd d9e8 9a3d 29c2 93bc
00000010: 448b 37bd fd6c 9bbd 8903 a3bd 2934 b3bd
00000020: 5dcf e83b 2bdf 79bd 58df 9f3c fd66 25bd
00000030: c0ea ac3d beff 8abc aaa4 92bc eb17 60bb
00000040: 92b8 afbc a459 623d 7f17 f23b 02a5 1d3c
00000050: 90e9 7f3d 4a7e 80bd 9b9c 903d c09e cbbb
00000060: 6861 ee3c c901 5d3d 01d2 8a3c 54ed af3d
00000070: 023e 15bd 6d6c 503d cf4e a53d 48da 053d
00000080: 03b3 fd3c 86ed ec3b b5ef 83bd 17f2 093d
00000090: cfbe 853d 5c49 cdbc 856d 93bd f078 9c3c
000000a0: 19c0 823c eaad 8a3c b131 0fbc 4f5e 11bd
000000b0: c428 4c3d a05f 0fbc 08ae af3c 499c 52bd
000000c0: 28a8 573c f368 9abd a69e 07bc c68f 88bd
000000d0: 5ab4 3b3d c5f2 a63c 6dbd 77bc be17 ad3d
000000e0: 4d9a 153d c765 84bd 4b5c 72bd 31f3 92bd
000000f0: cdfb 30bc d162 613d a4dd b3bd b34d 9ebd
00000100: 6c48 81bd b79e 503a 4e78 67bd ef56 82bd
00000110: c46d 053d 08ca b5bc f5a7 03bb 216b 983c
00000120: aaed 673d 1782 f13c ccc7 c83c fc77 813d
00000130: 01e6 16bd 08f8 443d cb72 473d 82c5 8a3d
00000140: d68b a23c 6a71 b9bc b2a6 90bd 865e abbd
00000150: c766 303d 5225 f43c 2750 7dbc 37fd a03d
00000160: 1aec 7e3d 2558 a73d 7d31 203d 2def 9cbd
00000170: 4b85 503d 4bf8 913d ed02 8639 a79c 6b3d
00000180: 2186 c0bc fb00 5e39 bb79 7e3c f468 dc3b
00000190: fd3b 643d f85f 6abd a721 4fbd 2690 a4bc
000001a0: 3bac 4f3d 7c37 553d a9fd 8d3c 068c 023c
000001b0: b7b9 88bd c106 64bd de7a 903d 50f5 57bd
000001c0: a98f 8c3d eab5 98bb b276 70bc f012 15bd
000001d0: 41a0 cc3c 1a61 c13b a1bc af3d 4fa9 be3c
000001e0: 26a5 4ebd 406b 93bd dfb2 88bd 1f81 9c3d
000001f0: 8fdc afbd 8748 a9bd 2c48 0bbd 6d82 6c3b
00000200: 2fb2 853d 66ad 54bd a9cc 68bc 391e 0fbb
00000210: 436a b9bb 8aef 8fbd 8d70 8e3d 7903 a9bd
00000220: 4b20 633d 990b 62bd 5c89 39bd 339c 383d
00000230: 1b8a 4d3d 4ce7 69bd 31dd 273d 24ec b4bd
00000240: 20b2 66bc 61b7 56bc 79de 843d baf0 a63d
00000250: ffbd 94bd 6f86 1e3d 0280 b23d ef46 a63d
00000260: afa5 2eba f152 7dbd 045f a3bd b0f5 b03d
00000270: bff0 59bc df65 2f3d eb4c ab3c 2b9a 903d
00000280: 9ef2 a6bc c528 8a3d 4ccd 103d 4952 d7bc
00000290: 1311 98bd 6810 85bd 8b57 2e3d a8e5 6c3c
000002a0: 5f41 c6bc 2b43 80bd 273d a63d 078c d0bc
000002b0: b219 81bd 8b9c 7ebc 0930 73bd d1f5 a8bd
000002c0: 33ab 03bd c438 1e3d 8439 933d 4ce7 4e3d
000002d0: e05a 003d 2a3f b03d 2edb 693d c691 903d
000002e0: 8fcc 683d 587d 08bd dc85 12bd 889a 0c3a
000002f0: 12d7 363d 32ec 5fbc 9493 aebd 416d 9dbd
00000300: 1b68 343d c906 103d 3c75 a83d eac5 60bd
00000310: d720 5b3c 7a2f a53c 964b f63c 5c68 a6bc
00000320: ae25 f6bc 6c5c 62bd 8dc2 4abc 8f94 8c3c
00000330: 81fa 37bd 71f0 8ebd 3168 96bd 6e54 a03c
00000340: 5f18 c73c c04e 63bd 98c5 483d 7833 6b3d
00000350: a7d2 83bd be68 1dbc 5856 89bd 5a4b 173d
00000360: 9eaa b9bc 9b20 863d c899 823d 28fb a8bd
00000370: e719 9cbd 7592 42bd ad19 96bd e281 cbbc
00000380: 8d04 28bc 97cc a83d fb61 953c 79ea c33c
00000390: 5614 9ebd 5b68 4fbd 6446 d5bc 575c bdbc
000003a0: 582c a53c 0058 3dbc f19f 1a3d e3b9 45bd
000003b0: e715 a73c d9ef 3bbd 08cb 8dbd 987a f0ba
000003c0: 850c 8bbc c631 47bd 4152 aebd 5f1f 893c
000003d0: c2b1 b93c 6dbc 453d 0dff 7a3c 9f7f 983c
000003e0: f663 7b3d 7a02 cebc 8d84 15bd a887 9d3b
000003f0: 569f b13d ce57 62bc db48 18bc 24c8 abbd
0.038192764 -0.07825016 0.075639434 -0.018036919 -0.04481055 -0.07589147 -0.07959659 -0.08750183
0.0071047978 -0.061003845 0.019515678 -0.04038142 0.084432125 -0.01696765 -0.017900784 -0.0034193944
-0.021450315 0.05526127 0.007388055 0.00962186 0.062478602 -0.06274088 0.0706112 -0.006213993
0.029099181 0.05395678 0.01694584 0.085901886 -0.03643609 0.050884653 0.08071672 0.032678872
0.030969149 0.0072304634 -0.06442205 0.03367814 0.065305345 -0.025059395 -0.071986236 0.019100636
0.01596074 0.016928632 -0.008739875 -0.03549033 0.049843565 -0.008750826 0.02144529 -0.051418576
0.01316265 -0.07539549 -0.008277571 -0.066680476 0.045826294 0.020379433 -0.015120846 0.08451794
0.036524106 -0.06464725 -0.05917005 -0.07175291 -0.0108022215 0.05502588 -0.08782509 -0.07729664
-0.063126415 0.00079582207 -0.056511216 -0.063642375 0.032575384 -0.022191063 -0.0020089124 0.01860577
0.05662314 0.029480977 0.024509333 0.06321713 -0.036840443 0.048088104 0.04869346 0.06775953
0.01984207 -0.022637088 -0.070630446 -0.08367638 0.043066766 0.029802952 -0.015461004 0.07860797
0.062236883 0.08171109 0.039109696 -0.07662807 0.050908368 0.07127436 0.00025560652 0.057522442
-0.023501458 0.00021171935 0.0155319525 0.0067263786 0.05572127 -0.05722043 -0.050569203 -0.020088267
0.05070136 0.052054867 0.017332869 0.0079679545 -0.06676047 -0.055670504 0.07054685 -0.052724183
0.068633385 -0.0046603577 -0.014676737 -0.036395013 0.024978759 0.005901468 0.085809 0.023274092
-0.050450467 -0.07198191 -0.06674742 0.076418154 -0.0858699 -0.082657866 -0.034004375 0.0036088482
0.065281264 -0.051923178 -0.014208951 -0.0021838082 -0.0056584193 -0.0702811 0.06955061 -0.082526155
0.05545072 -0.05518684 -0.04529701 0.04507084 0.050180536 -0.057105348 0.04098243 -0.08834103
-0.014080554 -0.013105244 0.06487746 0.08151384 -0.072628014 0.038702425 0.08715822 0.08118998
-0.0006662262 -0.061846677 -0.07977107 0.08640611 -0.013302027 0.04282176 0.0209107 0.07060655
-0.02037936 0.067460574 0.035352036 -0.026284354 -0.07425132 -0.0649727 0.042563956 0.014459051
-0.024201093 -0.06262811 0.08117133 -0.025457395 -0.06303729 -0.015540252 -0.05937198 -0.08250011
-0.03214569 0.038628355 0.071887046 0.05051355 0.031336665 0.086057976 0.05709379 0.07059054
0.056835707 -0.033322662 -0.03577219 0.0005363603 0.0446387 -0.013667153 -0.08524242 -0.07686854
0.044044595 0.03516272 0.08225486 -0.054876246 0.013374529 0.02016424 0.030065339 -0.020313434
-0.030047264 -0.05526392 -0.012375486 0.017160682 -0.044916634 -0.06979454 -0.07344092 0.01957151
0.024303613 -0.055495024 0.049016565 0.05742213 -0.06436663 -0.009607492 -0.06705922 0.036937095
-0.022664364 0.06549188 0.06376988 -0.08251029 -0.07622128 -0.047502954 -0.07329116 -0.024842206
-0.010254991 0.082421474 0.018235197 0.023915516 -0.077187225 -0.05063663 -0.026034541 -0.02311532
0.020162746 -0.011556625 0.03775019 -0.04827298 0.020396186 -0.045883033 -0.06923491 -0.0018347083
-0.016973743 -0.048631452 -0.085117824 0.016738592 0.02266777 0.0482754 0.015319598 0.018615542
0.061374627 -0.025147665 -0.036503363 0.0048074313 0.08672969 -0.01381488 -0.009294714 -0.08387783

encoder.lstm.bias_ih_l0 f4 [512]
00000000: 5cdf a5bd 0ad5 73bd d994 b23d 01af 34bd
00000010: bbdc 99bd a5eb 92bc c2a9 993d 3075 0f3d
00000020: 1e9c 91bd 8319 9e3d ce42 883b a43b d7bc
00000030: cab9 39bd b145 1ebc 7f6d 773d 0c61 78bc
00000040: d9b9 4abd 4d62 21bc 2280 5fbc d13f 083d
00000050: 77f0 ec3c c771 69bc ae00 1c3c 223b 8c3d
00000060: ce32 3cbd 44ab c63c aab8 59bd 8495 903d
00000070: d5c5 1e3d d083 6dbd d2ba e1bc 09f4 6c3c
00000080: e3d5 aabb b512 aa3d eee0 8738 41eb 90bd
00000090: 0eaa c0bc c725 8fbd 3784 8a3d 3498 5e3d
000000a0: bacf febc b949 adbd a936 70bd b02a 513d
000000b0: 06ff 9bbd c4ba 023c a48d 843d 4420 da3b
000000c0: 15c3 983c edc4 273d 7459 d0bc 85a7 0b3a
000000d0: 19a7 1e3d 083c 10bd 4bdf a13d 2f96 c6bb
000000e0: ff37 49bd d76c a4bd e898 923d cbe5 b13c
000000f0: 6277 ecbc bf1b 47ba b46d c53c 17d7 a03d
00000100: 30c0 8ebc db4c 09bd 59ba b4bc 5a7f e7bc
00000110: 6af5 9f3c d368 4a3d 9cfe a93d 71ee 2ebd
00000120: e705 a1bc 510e 893d 1af8 953d e226 f4bc
00000130: 2b7b 333d 1bc0 c6bc 911b 113c 1395 213d
00000140: d863 95bc 6827 5f3d 4ada a83d 7c90 c1bc
00000150: 62c3 25bc b240 90bd 05c3 38bd f1be a6bd
00000160: 5a50 ca3b 1dc0 663d 14e2 2ebd 8193 ab3d
00000170: dd36 52bd 8ad8 593d e24a 8c3d edec d93c
00000180: 04e2 8c3d bfa6 e63c 59eb 983d 650e 20bd
00000190: 71d9 88bd a52c 983d c7e3 4dbd 2578 11bc
000001a0: e625 0ebd d171 aa3d 7541 3b39 c0f8 123d
000001b0: c84a b2bd 67e3 933d d39e 913d 60fd b1bd
000001c0: 1285 183d 307f 75bd 416a 6abc 7bab 94bc
000001d0: 715b b73c 7d2d 83bd c926 0b3d 553a 153d
000001e0: ef3d ac3d 136b a33d fc11 e9ba 4578 1c3d
000001f0: ac50 a8bb 4ea5 ea3b 4459 a53d b954 1cbd
00000200: b12d 81bc c7dd b9bc d679 693d 2642 323d
00000210: 6864 aabd 8be1 c03c 7ceb 833d 5b1f 773d
00000220: 5b11 8fbd 09e4 ae3d cd2d d5bc 7374 7ebd
00000230: ed03 0fbc 9288 3cbd 5b0b d73c 80ef 90bb
00000240: b79a b5bc f1a6 893d 9c9c 543d 751f 80bd
00000250: 8fef a73d f959 933d 33ac 9cbd 26b4 29bd
00000260: 87f3 173d 49d5 7fbd e181 8f3d bde6 f2bc
00000270: 4849 82bc 37d3 af3d 5a08 b43d 19f7 a5bd
00000280: 2f6b 743d 87d0 56bd f918 d43a d55b 8e3d
00000290: 25dc a03c 5e91 9cbd ba11 1b3c edf9 05bc
000002a0: e27e ef3c 6073 1c3d 0160 973c b5d9 e63c
000002b0: 6889 3f3c c2a0 5abd f3c4 373c 6b8f 2f3d
000002c0: 59da 0bbd 32d0 3cbd 75a4 643d bd15 a13d
000002d0: 70f6 5b3d 816a 0d3d cd49 94bd 3988 42bc
000002e0: 8775 923d 8d24 4bbd cd04 88bd 71f5 33bd
000002f0: 1e6e cabc 5b4f 82bc 56c0 ad3d 3f1e a1bd
00000300: 71aa 08bc 4599 b0bd 4796 30bd 8630 963d
00000310: 61b8 733d 541e dabc ed3e 7dbd 57bb 77bc
00000320: d97d 343d 1f4c 59bc 2e46 a8bd c318 7cbd
00000330: 57c7 6dbc f357 f1bc 85dd 35bb 7492 f7bc
00000340: a912 7bbd eebd bdbc 906a af3d ae66 9fbc
00000350: 3f4c b3bd d210 b2bd 2a01 9a3d 546c 4b3d
00000360: f698 13bc 94c0 a03d b4ee 7e3d a5cd 5fbc
00000370: 3873 673d 00ce 233d d617 1a3d 9f77 debc
00000380: d5e1 1ebd 7549 36bc adf6 81bd c589 993d
00000390: dd87 6abd 46a9 ae39 6e77 0e3d 8703 8a3d
000003a0: a7cd 4c3d 1d68 083b f571 38bd 838e 9bbc
000003b0: fe83 4fbd 0390 c5bc 936d dfbb 1670 4a3d
000003c0: fe82 af3b 8a02 2e3d 81e2 863c 7645 723d
000003d0: 4c39 383d b69d e0bb 677c 9bbd 6b3b e2bc
000003e0: a2d0 53bd 449c a1bd 3ab7 41bd d310 a2bc
000003f0: c434 a83a 1745 ce3c d1a1 08bd ed91 973c
-0.08099243 -0.05952934 0.08719797 -0.04411221 -0.07512804 -0.01793463 0.07503082 0.035023868
-0.07109855 0.0771971 0.0041583544 -0.026273556 -0.045343198 -0.00966017 0.060407158 -0.0151598565
-0.049493644 -0.009850097 -0.013641389 0.033263985 0.028923256 -0.014248318 0.009521646 0.06847216
-0.04594689 0.024251588 -0.053154625 0.07059768 0.038762886 -0.057987034 -0.027554903 0.014462479
-0.0052134856 0.08304349 6.479198e-05 -0.07076121 -0.023518588 -0.06989627 0.06763499 0.05434437
-0.031104911 -0.08461327 -0.058645878 0.0510661 -0.07617001 0.007979099 0.06472328 0.0066566784
0.01864771 0.040959287 -0.02543328 0.00053273916 0.038733575 -0.0352135 0.07903918 -0.0060603837
-0.049125668 -0.08028572 0.07158071 0.02171602 -0.02886552 -0.0007595382 0.024100162 0.07853525
-0.017425627 -0.03352056 -0.022061514 -0.028258968 0.019526202 0.049416374 0.08300516 -0.042707864
-0.019656135 0.06692184 0.07322712 -0.029803697 0.043818634 -0.024261525 0.00885667 0.03944881
-0.018236086 0.05448094 0.0824476 -0.023628466 -0.010117384 -0.0704359 -0.04510786 -0.08141888
0.0061741294 0.056335557 -0.042696074 0.083777435 -0.051321853 0.053185023 0.0685022 0.026602233
0.068790466 0.028155683 0.07466764 -0.039076228 -0.06682099 0.0743039 -0.050266054 -0.008878742
-0.03470411 0.0832249 0.00017858094 0.035881758 -0.0870567 0.07221108 0.071103714 -0.086909056
0.03723628 -0.05993575 -0.0143075595 -0.018148175 0.02238247 -0.064051606 0.033972535 0.036432583
0.084102504 0.07979407 -0.0017781849 0.038200635 -0.00513657 0.007160819 0.08073667 -0.038166735
-0.015768858 -0.02268876 0.057000957 0.043520115 -0.08319932 0.023545047 0.064413995 0.060332637
-0.06985732 0.08539588 -0.026022816 -0.062122773 -0.008728963 -0.04602868 0.026250532 -0.004423082
-0.0221685 0.06721295 0.051907167 -0.06256 0.08199989 0.07194895 -0.07650032 -0.04143157
0.03709748 -0.062459264 0.07007194 -0.02965104 -0.015904084 0.08585208 0.087906554 -0.08103771
0.05967253 -0.05244496 0.0016181759 0.06951109 0.019636223 -0.07644914 0.009464676 -0.008177263
0.029235307 0.038195968 0.018478395 0.028179983 0.011690475 -0.053375967 0.01121639 0.042861383
-0.03414378 -0.046096988 0.0558209 0.078654744 0.053701818 0.0345254 -0.07240639 -0.011873298
0.07151323 -0.049595404 -0.06641541 -0.043935243 -0.024710711 -0.01590698 0.08483951 -0.07867097
-0.008341418 -0.08622984 -0.043112066 0.07333474 0.05950201 -0.02662579 -0.06182759 -0.015120349
0.04406533 -0.013262778 -0.08216511 -0.061547052 -0.014512858 -0.029460883 -0.0027750444 -0.030221201
-0.061297093 -0.023161855 0.08565247 -0.019458141 -0.08754777 -0.086946145 0.07519753 0.049663857
-0.009008637 0.07849231 0.062239364 -0.013659869 0.056506366 0.03999138 0.037620388 -0.02715665
-0.03878959 -0.011125912 -0.06345878 0.074969806 -0.057258476 0.00033313985 0.034781866 0.06738954
0.050000813 0.002081401 -0.045030553 -0.018988853 -0.050662987 -0.024116522 -0.006818482 0.0494233
0.0053561917 0.04248289 0.016465427 0.059148274 0.044976518 -0.006854738 -0.07592087 -0.027616223
-0.05171264 -0.078911334 -0.04729388 -0.019783413 0.0012833108 0.025179429 -0.033357445 0.0185022

encoder.lstm.bias_hh_l0 f4 [512]
00000000: cc43 1bbd 8849 c83c 2daf 393d 6dfb 86ba
00000010: cdb3 6ebd 96fa 983d fca2 b4bd defe 17bd
00000020: 3240 3bbd 9b31 913d 7b4a 3b3d ed56 ea3b
00000030: d0a7 a93d 1115 9abd cbe5 463d dcc9 6d3d
00000040: 7411 aebd dbd6 863c c84b 31bd 26b2 9fbd
00000050: 6967 c8bc 025c 73bd 076a 9f3d c8c6 a23d
00000060: fc42 883d 455e 633d ac46 23bd e828 803d
00000070: f5c2 9bbc 7b40 bb3c 4297 88bd 568d 6a3d
00000080: 99d4 5cbd 19fe 823d a4fb 023d f253 84bd
00000090: 2d3c 8ebd 4cb6 813d 6b3c 973d 8d15 873c
000000a0: 14bc 943d 7b5f 2f3d 3c62 3ebd 3a4a a43d
000000b0: ef4b 533b 963b 253d 543d 27bd 87fd 52bd
000000c0: 7afc 2d3d 8521 3ebd afdd 99bd d747 8dbd
000000d0: 3ab2 643c 7b07 583d 85fa 4cbd c809 2d3d
000000e0: 1cce b8bc 2ed2 57bc 17f9 fcb9 2832 77bd
000000f0: 228d 193d 5acc 0cbd f7fe 99bd 4b49 95bd
00000100: 8c97 f6bc a923 aa3d 221d b6bb 3176 88bd
00000110: 2972 5cbd 7760 563d 4477 6b3d 6d6a a33d
00000120: abab 8cbc 03ca 9a3d 5487 263d 1e1d efbc
00000130: 4481 a03d 456b 1cb9 eee7 0f3d 236f 98bd
00000140: 6b74 00ba b051 433d e4ae 9a3d ee77 53bd
00000150: 6d92 893a 9343 823c 020f 3a3c 4b37 633d
00000160: ba34 a43c 4aed 953c 26da f2bb c0a8 633d
00000170: 201f a4bc 7177 923d 4040 9f3d 8d3d ff3c
00000180: bf21 e23c 0a83 163d 9ef8 fdbc 7e0b 013c
00000190: 66b4 adbd 9ded a23d 0754 af3d 6b53 7b3c
000001a0: e33b ae3d 4b6e 583d a955 20bd a824 6a3c
000001b0: 7bf4 8fbd 0460 59bd 2146 8a3d 7422 a9bc
000001c0: d8e9 b8bb cb40 963d 6f68 323c 1984 df3c
000001d0: 2b09 afbd 1718 adbd f709 8cbd e3de 49bd
000001e0: 8973 5c3d c581 803d b84d 973d 798a 2a3d
000001f0: e5f1 14bd 4e5b 86bd a937 99bd 61c4 793d
00000200: 4524 79bd 0983 4abc ab90 f4bb c608 6cbd
00000210: 46ad acbd 358c a6bc 88ef 41bc 878d 043d
00000220: 3a0a 273c 6f3f 9b3d 7240 693d 34e8 54bd
00000230: c180 833d 097a af3c 0849 bbbb a637 483d
00000240: a1a6 64bd 9b70 b33d 3aee 3b3c f2ba 9abc
00000250: 47ca ab3d 0269 0abd 3fdf 7bbd d80f 90bd
00000260: 0b1a 293d 004d 483d 3fb0 5f3d 632c 033d
00000270: 0bb9 5cbd 0f6f 643d c596 633d 9b36 86bd
00000280: 9730 353d bd71 9bbd 3f23 9d3b d51d acbd
00000290: 86fa 353c c104 b73c 66bd 9c3d bca1 923d
000002a0: 826f 7fbd 56c0 0dbd c61c 613d b99c b53c
000002b0: 1cd9 1d3d 516a f53c be7f 9dbd 9195 fe3c
000002c0: 3cc4 b33d f529 773d b1f2 7dbb bbd5 c1bc
000002d0: 9382 ab3d 638c 093b 3922 9fbc 31da 113d
000002e0: 49e0 af3d e6de 153d c2e2 b13d 168c 00bd
000002f0: dc84 99bd 7bcf 2abd 8569 4d3d 301b 45bd
00000300: 8b4d 663d 918c 853d 94ca 30bc 0407 3cbd
00000310: 6d17 133d 5f82 1fbc 81b6 5dbd 46c3 acbd
00000320: afd8 073c f884 953d c15a ad3d da95 8b3d
00000330: 847c 84bc 8615 b2bd 4d21 a4bd bfa2 7f3d
00000340: d094 b439 effd 5b3d 9ac9 a03d bd13 89bd
00000350: b858 ad3d 7664 203d 2cac de3c 0557 32bd
00000360: 0515 83bd 22f2 a93d 78df 6c3d 6ec8 973c
00000370: 8818 223d 347a 70bd 5182 7abc 43f7 10bd
00000380: f3c4 6ebd 2423 5fbd 1013 893d 9f61 d3b9
00000390: a13d 53bd ee84 1cbd 07eb f13c 7345 893d
000003a0: 3247 2ebd b1f5 7abd 5d41 abbc 964e 833d
000003b0: 7e6c fbbc 5057 943d 88b9 9c3d 4b1f b3bd
000003c0: fc68 873d c244 943c 4ba7 c2bc 8b2c 25bb
000003d0: 9c74 643d 6df6 9fbd 4d7f e53c e388 d3bc
000003e0: 3611 ecbb eedd f5bc 2fe2 b23b db56 95bd
000003f0: a1de 7ebd f354 f03c 6f7f 36bd 6d0a 13bd
-0.037906453 0.024449125 0.045333076 -0.0010298319 -0.05827694 0.074696705 -0.08820149 -0.037108295
-0.04571552 0.070895396 0.045725327 0.0071514756 0.08283961 -0.07523549 0.04855899 0.058053836
-0.08499423 0.016459873 -0.04328516 -0.07797651 -0.024463372 -0.059413917 0.07783895 0.07948071
0.06653401 0.055509824 -0.03986232 0.06257802 -0.019013861 0.022857895 -0.06669475 0.057263695
-0.053913686 0.063961215 0.031978264 -0.06461324 -0.06945071 0.063335985 0.07384571 0.016489768
0.072624356 0.042815667 -0.046480402 0.0802197 0.0032241305 0.04034003 -0.04082997 -0.051511314
0.04247711 -0.046418685 -0.07512986 -0.06898468 0.013958508 0.05274151 -0.0500436 0.042245656
-0.022559218 -0.013172669 -0.00048250772 -0.060350567 0.03748811 -0.034374572 -0.07519334 -0.0728937
-0.03010156 0.08307583 -0.005557672 -0.06663168 -0.05381981 0.05233809 0.057486787 0.079792835
-0.017171701 0.07558062 0.040656403 -0.029188689 0.078371555 -0.0001491728 0.035133295 -0.07443073
-0.000490016 0.047685325 0.07552889 -0.051628046 0.0010495909 0.015901363 0.011356117 0.055472653
0.020044673 0.018301625 -0.007411259 0.055580854 -0.020034373 0.07151688 0.077759266 0.03115728
0.027603982 0.036746062 -0.031002339 0.007876275 -0.08481674 0.079554774 0.08560949 0.015339713
0.08507516 0.05283956 -0.039144192 0.014290966 -0.07029053 -0.053070083 0.06751657 -0.020646311
-0.0056431107 0.07336577 0.010889157 0.027284669 -0.085466705 -0.084518604 -0.06837838 -0.049284827
0.05382112 0.062747516 0.073878706 0.041635964 -0.0363635 -0.06560384 -0.074813195 0.060978297
-0.060825605 -0.012360343 -0.007463535 -0.057625555 -0.08431487 -0.020330528 -0.011836894 0.032361533
0.010195309 0.075804584 0.056946225 -0.05197926 0.06421042 0.021420496 -0.005715493 0.048881195
-0.055822972 0.08761712 0.011470372 -0.01888797 0.08388191 -0.03379155 -0.0614922 -0.07034272
0.041284602 0.048901558 0.05461144 0.032024752 -0.05388741 0.055769976 0.055563707 -0.06553384
0.044235792 -0.07590053 0.0047954614 -0.084041275 0.011107093 0.022341134 0.076533124 0.07159755
-0.0623622 -0.034607254 0.05495908 0.022169458 0.03853713 0.029957922 -0.076903805 0.031077178
0.08777663 0.060342748 -0.0038749392 -0.023661485 0.083745144 0.0020988218 -0.019425498 0.035608474
0.08587701 0.036589526 0.08685829 -0.031383596 -0.07496044 -0.041701775 0.05014946 -0.04812163
0.056226294 0.065209515 -0.010790486 -0.045905128 0.035911012 -0.009735673 -0.054129127 -0.08435683
0.0082914075 0.073007524 0.084645756 0.06815691 -0.016172655 -0.086955115 -0.08014164 0.062411066
0.0003444315 0.053708967 0.078509524 -0.06693218 0.084641874 0.039158307 0.027181707 -0.04354002
-0.064004935 0.08298136 0.057830304 0.01852819 0.039574176 -0.058710292 -0.015289859 -0.035392057
-0.058293294 -0.054476872 0.06693089 -0.0004031779 -0.051572446 -0.03821271 0.029531015 0.067026995
-0.042548366 -0.061269466 -0.020905191 0.064114735 -0.030691382 0.07243216 0.07652575 -0.08746203
0.06611821 0.018099193 -0.023761412 -0.0025203552 0.05577527 -0.07810674 0.028014803 -0.025822109
-0.0072042 -0.03001305 0.005459092 -0.07291957 -0.062224034 0.029337382 -0.044555124 -0.035898615

decoder.decoder_step.lstm.weight_ih_l0 f4 [512, 72]
00000000: a8ab b1bc 854a 17bd 8cd0 44bd dcf9 f83c
00000010: ca62 54bd 8ce7 d4bb 9608 24bc 52a9 34bd
00000020: 398b 4a3d ebc0 a1bc 48b1 7c3d acda cebc
00000030: e5e5 e13b 6341 98bd a00e 2cbd 08a7 9a3d
00000040: 2cdb 81bd 9eee 163d e995 8bbb 7b68 87bd
00000050: 470e 7d3d 9046 a43d 5e98 2f3d de0d 9a3c
00000060: 1fab 2cbd 19c8 73bc c06e 973d f790 773d
00000070: 8fb8 a83c eb16 363d 62b4 233d ad95 4bbd
00000080: cab4 7c3d c7cc 83bd 5e9d 673c 1f6b 2cbd
00000090: 352a 93bd 29f6 8a3d 21e5 95bc 8e91 093d
000000a0: 6018 1fbd 3df0 07bd 0f24 73bd cb6e 92bd
000000b0: 0fe6 6abd 1829 93bd 1599 073d d0b3 4b3d
000000c0: 0523 1c3c 1e46 c9bc 6f1c 79bc 351a 96bd
000000d0: 7186 453d 9661 7a3c 0f81 713d cfe7 9f39
000000e0: 7e36 403c 14ca 8bbc 7520 843d be07 58bd
000000f0: 934a 4d3d 6c3e 753d 53c7 a03d d454 5c3d
00000100: 6546 6d3d ec98 acbd 0d5a 213c 6f3c 9bbd
00000110: a76e e3bc 931a 833d 9f1f bdbc cf76 86bd
00000120: 13a4 abbd 607c 633d ce81 b0bd bfa8 ee3c
00000130: 66e5 2a3c cad0 943d e826 00bd ee48 fb3c
00000140: 3ebe 36bd efc9 f3bb 42e6 a23c 6942 3cbc
00000150: cf4f dd3c 36c8 67bb 549a 993d ae95 e1bc
00000160: cf0c 22bc 3875 b23c d893 5c3d d54f 9fbd
00000170: 20d1 fdbc aa3a 9c3d ee3d 613d dc0c 8fbc
00000180: 04aa 443c 9d93 04bd 5ca0 acbd e8e4 73bd
00000190: 9af9 c1bc 0225 2cbd 5106 adbd 2ea6 a5bd
000001a0: 5dc0 f8bc da5b 7ebd daa5 4b3d 6945 abbd
000001b0: 86ad b4bd 311a 9cbc 03eb 9e3d bec1 303c
000001c0: cd6a 46bd 32a5 98bd e38e ceba 6c71 37bd
000001d0: 55cf 923d d72d 7dbd 2d55 2dbd 95a9 fbbc
000001e0: bb59 33bd ad62 ae3d 2020 e43c 732f ca3c
000001f0: 411e 81bc dc1b 54bd 189e 503d 6f59 2ebd
00000200: 9054 06bd 3cb0 1c3d d10b 103d 527b 3b3d
00000210: 4446 703d a55a 9dbd 524e 95bd 002d a33d
00000220: 25fd 9a3d f41e 0cbb 24d5 453c 34a0 643d
00000230: 5e97 8b3d c7d1 853d f325 16bd 7419 1b3d
00000240: 0893 9dbd 1e48 e3bb 2aa9 82bd 31d5 a1bd
00000250: ecce 44bd 2c75 08bc bdf9 66bb 10c2 8abd
00000260: 1b95 b83b 50b6 4f3d 6a2d 6fbd 8657 83bd
00000270: b8c9 1e3d d8ab a3bd eb48 34bd 575d d2bc
00000280: b522 fb3c 6f6a febc d410 febb 6779 803d
00000290: d6f5 8f3c c193 1bbd 2e1b 4cbd 0ad0 3cbd
000002a0: f60f 6ebd 3b86 a4bc 9744 bcbc 9d46 e43c
000002b0: e2e1 063c 823c 2b3d 9f72 32bd 835d 10bd
000002c0: f5c9 92bd 34df a73c 0e5f 5c3c e6ad 2e3d
000002d0: a83c 873d 514c f53c c04a 73bd 0d9f 5abd
000002e0: 73c9 68bc 3b8b 543d d091 62bd 4529 aa3a
000002f0: efa6 7abd 5d2f c4bc 11f0 54bd 5b98 293d
00000300: 265a 993d e614 a8bd 53db a1bd 00d6 413d
00000310: 5117 9f3d 42fa a03c 8bf6 953d 867e 523d
00000320: b631 a9bd 6f96 643d 7289 9abc dcad 3d3d
00000330: 67c6 833d ba67 493d 0a5f 453d a359 963c
00000340: 6ca2 e93c fd6c a43d 1ff8 b3bd d3fd efbc
00000350: dc46 a3bd 3e5e 8fbd 90d6 4ebd 529c 4e3d
00000360: fe40 05bd 0468 223d 1024 5cbd 9c44 a1bd
00000370: 89b6 33bd 3bc4 a5bd 61ac f7bc d2d2 353d
00000380: 5869 1dbc 5c84 fcbc 46be a9bd 76ac 9f3d
00000390: 9305 afbd 57b1 6b3d 62e5 9dbd 8a6b 12bd
000003a0: 6695 7dbd 8f3a 85bd 85fd 743d 8eae 35bd
000003b0: ec4b 4f3b dc34 3abd 5d0f a73d 300a 1e3d
000003c0: df7d 77bd d82f 7bbc 15c3 9ebc c33b 9c3d
000003d0: 63ff 71bb e8a1 923c 3624 9c3c 2a62 85bd
000003e0: 754e e2bb eeb8 8dbc c762 643d d3a1 803b
000003f0: 994c 9b3d fb6a 04bd d0cf 553d 4477 98bd
-0.021688297 -0.0369363 -0.04805045 0.03039258 -0.051852025 -0.006497329 -0.010011813 -0.04410679
0.04944918 -0.01974531 0.061692506 -0.025250755 0.0068938606 -0.074343465 -0.042006135 0.0755139
-0.06340632 0.036848657 -0.004259814 -0.06611725 0.061781194 0.08021271 0.042869918 0.01880544
-0.04215538 -0.01487925 0.07394171 0.060440984 0.020595817 0.04445545 0.03996695 -0.04970329
0.06169585 -0.064355426 0.01413664 -0.042094346 -0.07185785 0.067852326 -0.018297734 0.033586077
-0.038841605 -0.033188093 -0.05936056 -0.07150038 -0.057348307 -0.071855724 0.033104975 0.04973203
0.009529834 -0.024569567 -0.015204533 -0.07329217 0.048223916 0.015282055 0.05896097 0.00030499554
0.011731742 -0.017064132 0.06451503 -0.05274176 0.050119948 0.059873983 0.07850518 0.053791836
0.05792846 -0.08427605 0.00984813 -0.07579886 -0.027762724 0.06401553 -0.023086367 -0.0656563
-0.08380904 0.055538535 -0.08618508 0.029133199 0.010430669 0.07266386 -0.031287104 0.030674424
-0.044615023 -0.007439844 0.019885186 -0.011490443 0.027015595 -0.0035367138 0.07500139 -0.027537193
-0.009890749 0.02178441 0.053851932 -0.077788986 -0.030983508 0.07628377 0.0549907 -0.017462187
0.0120034255 -0.032367337 -0.084290236 -0.059544474 -0.02367859 -0.04202748 -0.084484704 -0.08088337
-0.030365163 -0.062099315 0.049718715 -0.08362848 -0.088221595 -0.019055458 0.07759669 0.010788379
-0.048441697 -0.074533835 -0.0015759136 -0.044785902 0.07168452 -0.061811294 -0.042317558 -0.030720511
-0.043786746 0.08514915 0.02784735 0.024680829 -0.015761496 -0.05178438 0.05093202 -0.04256576
-0.03279549 0.038254008 0.03516752 0.045771904 0.05866076 -0.07683305 -0.07290329 0.079675674
0.07567815 -0.0021380754 0.0120747425 0.055816844 0.068159804 0.065341525 -0.036657285 0.03786607
-0.076940596 -0.0069360873 -0.06379922 -0.07901991 -0.0480489 -0.008328717 -0.003524407 -0.06775296
0.005633009 0.050710976 -0.05839292 -0.06413178 0.038766593 -0.07991761 -0.044014852 -0.025679274
0.030656198 -0.03105661 -0.007753471 0.06273156 0.017573278 -0.037982706 -0.049830608 -0.04609684
-0.05812069 -0.020083537 -0.022981925 0.027865702 0.008232566 0.04180575 -0.043566342 -0.03524543
-0.071674265 0.020492174 0.013450397 0.04264631 0.06603366 0.029943617 -0.05939746 -0.05337434
-0.0142081855 0.051890593 -0.05531484 0.001298227 -0.061194357 -0.023948366 -0.051986758 0.041405063
0.074878976 -0.08207111 -0.07903161 0.047323227 0.07768119 0.019650582 0.07322415 0.051390193
-0.08261435 0.055807527 -0.018864367 0.046308383 0.064343266 0.049171187 0.04818634 0.018353289
0.028519832 0.080286 -0.0878756 -0.029295838 -0.079725 -0.07000397 -0.05049759 0.050442047
-0.032532685 0.03964998 -0.05374533 -0.07874414 -0.04387525 -0.080940686 -0.030233564 0.044390507
-0.009607635 -0.030824833 -0.08288245 0.07796566 -0.08545985 0.05754217 -0.07709767 -0.03574709
-0.061910056 -0.0650531 0.059812088 -0.04435592 0.0031630946 -0.045460567 0.08157227 0.038583934
-0.060422774 -0.015331231 -0.019380132 0.07628586 -0.0036925904 0.017899469 0.019060235 -0.06512864
-0.0069063255 -0.017300095 0.055758264 0.003925541 0.07582969 -0.032328587 0.05220014 -0.07444623

decoder.decoder_step.lstm.weight_hh_l0 f4 [512, 128]
00000000: de93 d6bc c0d9 8b3d 8b7f 633d f902 923c
00000010: 3284 933d 1b08 143d d27a e5bc 1454 d0bc
00000020: 8332 853d fec5 d1bc a882 7d3d 2cab 393d
00000030: ec7b 7f3d 313e a33d 839a e3bc 2b4a 10bd
00000040: 1f05 3f3d c84a c83c 0b7f da3c 0332 9bbd
00000050: cbd4 cb3a d3e5 94bd a1d7 61bd 2f98 003d
00000060: e0ac c2bb 5eca fe3c 4cc5 dc3c 86fb a7bc
00000070: b27b 35bd d4bd 6a3d 8e95 a23c 4193 b13c
00000080: 12d1 0e3d 1398 80bd ec9b f83c 8559 9bbd
00000090: 84a3 bb3c 7fbc e73b 7733 5c3d 5de6 4dbd
000000a0: 6e85 c1bc 95d7 56bd 5c59 ae3c 8e97 a63d
000000b0: eeb4 3b3d b517 91bd 8220 8bbb d76a 843d
000000c0: ec9e 4fbc 7046 0dbc 0cda 61bd 21be 80bd
000000d0: de2c 8a3d 9dc5 fd3c 30d1 9d3d 60d0 a63d
000000e0: 07c4 34bb 1b84 a03d b556 b0bd 8640 a3bd
000000f0: 58e6 60bd 9129 97bd 17a6 11bc 6023 653d
00000100: f6c4 3bbc 88ff 91bd 717a 113d f621 833d
00000110: ed6a 5b3d 65dc dcbc 2984 8abd c7ef 203d
00000120: a21e 6c3d 5613 17bd cdb6 9fbd cef2 acbc
00000130: 73cd dd3c 39ce af3d 9e35 613d 6165 863d
00000140: e358 203d b6fb a6bd d02c 8fbc f3b1 03bc
00000150: da55 f53b 1e9b a1bd 31c9 983b 3c9c a1bd
00000160: c49c 46bd 3af4 6a3d 1c24 173c db02 343d
00000170: 6542 59bd 38e8 823d 1e2a 773d 4e97 ad3d
00000180: 45d3 c13c cb0f 6bbb 169d 873d da1a 883d
00000190: 0c20 56bb 0f7c 7fbd d782 ce3c a75a 20bd
000001a0: 1963 19bb 56be b6bc 33c4 9fbd 9bee 05bc
000001b0: 88e1 13bd 2fd8 8b3d 3fe4 243c e115 b33c
000001c0: 6982 a8bc 6961 acbd d826 9bbd 1b6c 56bd
000001d0: f173 cf3c 4120 10bd 93ad 97bd c199 98bd
000001e0: 0db0 a93d 51e2 043d 611c 9e3d b663 afbc
000001f0: 403e 543c c8ad ed3c 6045 c13c 0037 953d
00000200: 7117 843d 64bc 643c 03c5 a23d 2ee8 8e3d
00000210: 7711 aa3c 7519 cf3b 32c7 723d c656 d1bc
00000220: 972f ed3c 5864 4dba 374f a0bd 1c3f 133d
00000230: 7f15 323c d91d aabd b486 8fbd 71c1 893d
00000240: ffb3 093d 88e4 9ebd b27a 983a c7bf 92bd
00000250: b486 ebbc dea4 abbd 0c0a 8e3d 07f4 c93c
00000260: 9937 fb3a 6af4 86bd 73d1 9fbc 5b7f acbd
00000270: 0a68 983d f0d3 e93c 6e0d 1a3d a47e 853d
00000280: 17c5 ad3d b8ba a1bb 9453 4dbd 818c af3d
00000290: f7b5 9fbd d740 0a3d a2ee 0cbd fe14 06ba
000002a0: b1ae 99bd aa9d b8bc a628 d4bc 4d7a b2bd
000002b0: 51f8 7e3c b64a 67bc 9767 933d a6b1 93bd
000002c0: 3cfd b2bd 93bd 2e3d 82b9 6b3d 85d9 7dbd
000002d0: 3d3c a93d 20a2 ce3c 8066 98bc 1c0b 9d3d
000002e0: 94a9 41bd ba17 463d 2bfd 80bc 8690 3abc
000002f0: a39f 523d ce27 973d f759 4d3c a583 82bd
00000300: d588 76bd 3e2d 233d 3a9f 7c3d a723 38bd
00000310: 2dfb a03d eb57 b0bd 540b 8cbd b9a7 a13d
00000320: 7c78 453d 0e9a 133d c126 453b ea91 003c
00000330: 9cd6 843c 0417 a7bd 5e3b a63d fa81 90bb
00000340: c629 693d c358 04bd 3d00 45bd d580 45bd
00000350: 0799 6d3c 8396 403d 2f9b 77bd 4328 0f3d
00000360: 2add 26bc d590 25bc 3f2c 3cbc 5e3a 843d
00000370: e667 5abd c150 5f3d 9928 ae3c 3264 5bbc
00000380: a922 293d 24a0 c2bc 19c5 8b3d f518 9bbd
00000390: ad38 73bd 8481 dbbc dde9 84b9 1a09 cebb
000003a0: ef0b 42bd 9797 5a3d f5b8 5d3d f858 d63c
000003b0: c150 9cbb d0e9 8cbd 8fdc 4b3d 1726 75bd
000003c0: b3fa 7f3d 1dc4 3fbc 0421 68bd 4c42 b3bd
000003d0: 8982 5b3d 61eb febb f5e8 8a3d 7e31 cbbc
000003e0: c92b 24bd 7bcf 3ebd 2342 3cbd bf56 8f3d
000003f0: f40c 62bd 918a 413d 28dd 2bbc 19d9 113d
-0.026193555 0.06828642 0.055541556 0.017823683 0.07202949 0.036140542 -0.028012667 -0.025430717
0.06503775 -0.025607105 0.06189218 0.045329258 0.06237404 0.079708464 -0.027783638 -0.035226982
0.046635743 0.024449721 0.026671907 -0.07577898 0.0015551088 -0.07270398 -0.05513728 0.031395134
-0.0059410185 0.031102356 0.026949547 -0.020505678 -0.04430742 0.05730994 0.019846704 0.021676661
0.034867354 -0.06279006 0.030347787 -0.07585434 0.022905119 0.007072031 0.05376002 -0.05026852
-0.023623195 -0.05245169 0.021282844 0.081343755 0.045826845 -0.070846 -0.0042458186 0.064656906
-0.012672167 -0.008622751 -0.055139586 -0.06286264 0.06746839 0.030978018 0.07705915 0.08145213
-0.0027582662 0.07837697 -0.08610288 -0.07971291 -0.054907173 -0.07380975 -0.008889697 0.05594194
-0.011460533 -0.07128817 0.03551716 0.06402962 0.05356877 -0.026960561 -0.06763489 0.03929117
0.0576464 -0.036883675 -0.07798538 -0.021111872 0.027075505 0.08584256 0.054982774 0.06562305
0.03914727 -0.08153479 -0.017477423 -0.008038032 0.007487041 -0.078909144 0.0046626558 -0.078911275
-0.048489347 0.05736182 0.009224918 0.043948036 -0.053041834 0.063919485 0.0603429 0.08476125
0.023660311 -0.0035867568 0.06621759 0.066457465 -0.003267291 -0.06237417 0.025208874 -0.039148953
-0.0023405014 -0.022307556 -0.07801094 -0.008174564 -0.036103755 0.06828343 0.010064184 0.021861019
-0.020569997 -0.08417017 -0.07575768 -0.05234919 0.02532384 -0.03518701 -0.074061535 -0.07451201
0.08285532 0.032442395 0.077202566 -0.02140985 0.012954295 0.02901353 0.02359265 0.07285881
0.064497836 0.013960931 0.07947733 0.069778785 0.020760281 0.0063201734 0.059272 -0.025554072
0.028953357 -0.0007835082 -0.07827609 0.035948858 0.010869383 -0.08306474 -0.070081145 0.06726349
0.033618923 -0.077584326 0.0011633246 -0.07165485 -0.028750755 -0.08381055 0.0693551 0.024652494
0.001916635 -0.06589587 -0.019509053 -0.08422729 0.07441719 0.028543442 0.037610464 0.065182954
0.084848575 -0.0049355887 -0.050128534 0.08571721 -0.07798379 0.033753242 -0.034407265 -0.00051148224
-0.07504023 -0.022536118 -0.025898289 -0.08714733 0.015562133 -0.014116934 0.071974926 -0.07211618
-0.08739707 0.04266126 0.05754996 -0.06197502 0.08263443 0.025223792 -0.018603563 0.076681346
-0.047280863 0.04836247 -0.01574572 -0.011386996 0.051421773 0.07380639 0.012533656 -0.063727655
-0.060189087 0.03983807 0.061675288 -0.044955876 0.07860408 -0.08610519 -0.06838098 0.07893319
0.048210606 0.03603559 0.0030082914 0.007847289 0.016215615 -0.08158687 0.08116792 -0.0044100257
0.056924604 -0.032311212 -0.04809593 -0.048218567 0.014501817 0.04701854 -0.06045073 0.034950506
-0.010184566 -0.010105331 -0.0114851585 0.06456445 -0.05332174 0.054520372 0.021259593 -0.013390588
0.04129282 -0.023758002 0.06824703 -0.075731196 -0.059380222 -0.026795156 -0.00025351244 -0.006287706
-0.047374662 0.053367224 0.054131467 0.02616547 -0.004770369 -0.06880534 0.049770888 -0.05985078
0.062494945 -0.011704472 -0.05667211 -0.087528795 0.053591285 -0.007779524 0.06782714 -0.024803873
-0.04008082 -0.046584588 -0.04596151 0.069989674 -0.055188134 0.047251288 -0.0104897395 0.03560743

decoder.decoder_step.lstm.bias_ih_l0 f4 [512]
00000000: 95cf 8abd f658 82bc 2640 983d 4a61 f1bc
00000010: 93f4 963d 1d24 c23c 5dde b33d c4e4 6bbd
00000020: b40c 3b3d 2192 e3bc 2c6f 813d 9ef6 fabb
00000030: f057 253d 838d 9e3d ff3d 983d a9b0 7cbd
00000040: 4bf5 1b3d 0118 60bd 00aa 6a3d 461d 4e3d
00000050: 1710 9dbd 9c23 9fbd a2f7 923d 9c0b 223d
00000060: f118 44bd 343f 6bbd b698 a73c 7544 643c
00000070: 883f 503d eaa4 b1bd a265 14bd 2b28 5ebd
00000080: 1629 a83d 0dc4 833d 0024 aabc 5c1d 563d
00000090: 60a1 55bd 42e7 98bc c0e0 643d 75c7 7d3d
000000a0: 41b8 a43d 89b2 7bbd ca27 abbc 24ec c73c
000000b0: 87bc fd3c 054e 6c3d ff31 8c3d c902 59bd
000000c0: 9c25 793d 230a 733d f9a4 a83c 8af5 9fbd
000000d0: 93c7 35bd 6e10 6ebc f80b 96bd 908f 86bd
000000e0: db92 1dbd 5a4b 303d 726a adbd 3117 a7bd
000000f0: e101 75bd 2d49 3f3d 3680 693c 4621 e63c
00000100: 4a1d c3bc d6e8 8c3d caba 8c3d 328e a83d
00000110: 828d 393b 0fe1 4fbd 1d15 a43d ea94 8cbd
00000120: c144 b43d ad6e 09bd 8c56 65bd b66d 8dbd
00000130: 7bb0 d7bb 5b3a 973d 3e2f 133d 82e3 fe3c
00000140: dd03 b03d 3d57 383d d770 183d ba7e acbd
00000150: 08d2 52bd 05e5 4fbd 797a 8c3d 2dec 5f3b
00000160: cde8 b43b cdbb 4cbc 3f12 7d3c 5417 83bd
00000170: d93f 2abc a119 83bd f154 b1bd 4048 e5bc
00000180: 4b36 e23c 5c0e 86bd f4f0 ac3d d696 8f3c
00000190: 6430 ef3c 7f26 45bb a7b6 1e3c 2d40 113d
000001a0: 4acd 1d3d 7dc0 77bc 2adb 053d 29e2 1cbd
000001b0: a28d 953c 5b8d 18bd c8ef 10bd 7647 46bd
000001c0: 94e0 94bd 44f1 1dbc 117c 6fbd 8456 4abc
000001d0: b11f 693c 0795 cd3c df95 943d 4ba2 85bc
000001e0: 2c1d a6bd 25f5 8bbd 5353 913c 5122 7bbd
000001f0: 5d47 333c 0826 b23b ebd6 9a3c c22a 88bc
00000200: 186c 84bd 9a36 c13c 565f 913d 7b71 0bbc
00000210: db79 a4ba 6d0c 923a 07a8 683d 695c 013b
00000220: 1be4 403d a2b5 8a3d 6e48 e33c 858b 9dbd
00000230: 7a37 ad3d e4f4 58bd c783 193d d752 77bc
00000240: a101 82bd de3e b0bb af12 a5bd 9eee 85bd
00000250: fc74 9abc 8719 d23c ef63 99bd 3c31 d5bc
00000260: 13cb a8bb 8b0e ad3c 1d64 77bc 6f47 a93d
00000270: b50d e1bc ca22 17bd c236 e8bc 0c74 603d
00000280: 7985 15bd 3968 c63c 2665 873d cc24 5d3d
00000290: 216c da3c 6a80 8abd edf5 af3d 5cac 1f3d
000002a0: 9220 fe3c 57c2 a4bd edeb 543d 6989 9239
000002b0: 9495 1838 feee f13c 05ce 9dbb abeb 97bd
000002c0: 07f9 963c dbc1 b03d 4e7d 283c e71b b0bd
000002d0: 5c7a 4ebd e0d7 17bd e32b 49bd 614b 913c
000002e0: 9ea3 abbd 7c1b b237 af96 a53d 83eb ab3c
000002f0: e600 a7bd d8d0 fc3c 91d4 4fbd f4d1 84bd
00000300: f5be 593d c223 78bd 1ecc 37bc 348c 9ebd
00000310: 495b 5c3d c2ea 3dbd 6511 12bd fcfb 1cbd
00000320: cd72 aebd e690 6fbd 252c 13bd 2fc9 683c
00000330: f708 84bd 6b34 8bbd 82e0 83bd 0047 8ebc
00000340: be99 583d 2482 1abc 06cc 57bd 8e2f 983d
00000350: d8a7 b7bc 2ad5 113c 3f10 963d d550 74bd
00000360: 4618 a5bd 1c5d aabd cea2 403d b782 793d
00000370: 826d 393d b9a1 58bd f37a 0439 aa6a 9e3d
00000380: 773c a3bd b790 963d caff 22bd 217c 66bd
00000390: e56e 56bb 2e51 b5bb 6b5c e2bc b948 9d3d
000003a0: 7e96 63bc 788c e83c 9fa9 dd3c 126c 1e3a
000003b0: 26e7 3b3d 8db2 87bd 3368 783d 6b78 073c
000003c0: c5db 8fbc cffe b4bd c883 82bd 413c 9abc
000003d0: 48a7 0b3a 9ad8 25bd 50fc c53c 4b5b 383d
000003e0: 41f9 843d 6f9d 44bd 65a5 6cbd d579 02bd
000003f0: 2fa7 1b3c f7e7 a3bc 8095 983d 3e3d a53c
-0.067778744 -0.01591156 0.0743411 -0.029465336 0.073708676 0.02369886 0.08782647 -0.057591215
0.04566641 -0.02777964 0.063200325 -0.0076587936 0.040367067 0.07741835 0.074337 -0.061691914
0.038075726 -0.054710392 0.05729103 0.050320886 -0.076690845 -0.07770464 0.071761385 0.039561853
-0.04787535 -0.057433322 0.02045856 0.013932337 0.050841838 -0.08674033 -0.036229737 -0.054237526
0.082109615 0.06433878 -0.02076912 0.052274093 -0.052155852 -0.01866496 0.0558784 0.061957795
0.08042956 -0.06144956 -0.020892996 0.024404593 0.030973686 0.057691593 0.068454735 -0.05298117
0.060826883 0.05933584 0.020586478 -0.07810505 -0.044379782 -0.014530284 -0.073265016 -0.06570351
-0.03847013 0.04304061 -0.084675685 -0.0815872 -0.059816245 0.046700645 0.014251759 0.028092038
-0.023817677 0.068803474 0.06871565 0.082302466 0.0028313105 -0.050751742 0.080118395 -0.068643406
0.08802176 -0.033552814 -0.05599074 -0.06905691 -0.0065823174 0.07384177 0.035933726 0.031114344
0.08594487 0.045005072 0.037216987 -0.08422609 -0.051469833 -0.05075552 0.06859297 0.0034167871
0.005520916 -0.012495947 0.015446245 -0.06400934 -0.010391199 -0.06401373 -0.086587794 -0.027988553
0.02761378 -0.065457076 0.08444396 0.017527979 0.02919788 -0.003008276 0.009687102 0.035461593
0.038525857 -0.015121576 0.032679714 -0.03830162 0.018256012 -0.037244182 -0.035384923 -0.048407994
-0.072693974 -0.009640042 -0.05846793 -0.0123497285 0.014228747 0.025095476 0.07255148 -0.016312739
-0.08111033 -0.06833867 0.017739927 -0.061312024 0.010942307 0.0054366626 0.018901309 -0.016621951
-0.0646593 0.023585606 0.07098262 -0.008510943 -0.0012548523 0.0011142619 0.05680087 0.0019738919
0.04709254 0.06772925 0.027744498 -0.07692627 0.08457847 -0.05296792 0.03747919 -0.015095434
-0.06347967 -0.005378588 -0.08060204 -0.06539653 -0.01885461 0.025646938 -0.07489764 -0.026024453
-0.0051511615 0.021125099 -0.015099552 0.08265578 -0.027472356 -0.03689841 -0.028346423 0.05479817
-0.036504243 0.02421962 0.066110894 0.05399017 0.026662888 -0.06762774 0.085918285 0.038982734
0.03102139 -0.0804488 0.05198281 0.0002794967 3.637893e-05 0.029532906 -0.004815819 -0.07417997
0.018429292 0.08630725 0.010283781 -0.08599072 -0.05040966 -0.03707111 -0.04911412 0.017736139
-0.08380817 2.1232052e-05 0.08085381 0.020986324 -0.08154468 0.030861303 -0.05073983 -0.06485358
0.053160626 -0.060580976 -0.011218099 -0.077415854 0.053797994 -0.04636646 -0.03566112 -0.03832625
-0.0851799 -0.058487795 -0.03593077 0.014208122 -0.064470224 -0.06797107 -0.06439306 -0.01736784
0.052880995 -0.009430442 -0.052684806 0.07430945 -0.022418901 0.00890092 0.073273174 -0.0596474
-0.080612704 -0.083185405 0.047030263 0.060915675 0.04527045 -0.052888606 0.00012634303 0.07735188
-0.07970517 0.07351821 -0.03979472 -0.056270722 -0.0032719907 -0.005533359 -0.027631959 0.07679886
-0.013890861 0.028387293 0.02705842 0.00060433254 0.045874737 -0.06625853 0.060646247 0.008268456
-0.017560849 -0.088376634 -0.063727915 -0.01882756 0.0005327356 -0.04048977 0.024168164 0.04500894
0.06492854 -0.048001703 -0.05777492 -0.03185447 0.009500309 -0.02000807 0.0745039 0.020170804
