model_saves/Seq2Seq/first_run/5.model (torch, 868371 bytes, 10 tensors)

encoder.lstm.weight_ih_l0 f4 [512, 72]
000000 38 8b 1e 3c ac 33 af 3c ea 57 9f bd 4c 0c a4 3d
       0.009676747 0.021386944 -0.0778044 0.08010158
000010 a4 dd 74 3d a5 88 0f bc d6 54 08 3d a7 ee b4 3d
       0.059781685 -0.008760606 0.03328403 0.08834582
000020 46 d7 4f bc f0 9c a3 3d 1f 30 a8 3d 36 ef e8 3c
       -0.0126856025 0.07988918 0.08212303 0.028434377
000030 70 d4 53 3d 39 41 b1 bc 75 50 19 3d 32 1c 00 3c
       0.051716268 -0.021637546 0.037430245 0.007819222
000040 99 68 6e bd 9e 63 a3 3d 69 9f 96 bd 2f b3 90 3d
       -0.05820522 0.07977985 -0.07354624 0.070654266
000050 af e8 ac 3d 3a 67 a1 bd 40 a8 0d 3c 80 e0 77 ba
       0.084428184 -0.07881017 0.008646071 -0.00094557554
000060 ee 66 e7 bc 63 3e 9e 3d 80 b3 92 3b 2d e7 b2 3d
       -0.028247323 0.07726743 0.0044769645 0.087354995
000070 01 0b ae bd ab de 9d 3d da 12 04 3d 1a 2f 50 3d
       -0.084981926 0.07708486 0.03224454 0.05082617
000080 c0 82 6d bc 7a 40 7d 3d e8 1a 37 bc 20 c7 ae 3b
       -0.014496505 0.061829068 -0.011175849 0.005333796
000090 36 26 b0 3d 73 ea 87 bd 1f f1 5e 3d 57 0a 79 3c
       0.08601038 -0.066365145 0.05442917 0.015200219
0000a0 57 65 99 bd 8e 0f af bb 68 2e ac bd 1d a1 d4 3c
       -0.07490032 -0.0053424304 -0.08407289 0.025955731
0000b0 c2 24 b4 bc 9f 3d 47 bc 5d a0 2a bc 8b 9c 3f 3d
       -0.021990184 -0.012160688 -0.01041421 0.04678015
0000c0 84 77 a2 3d c4 47 82 3d ec c8 fe 3c d5 17 6b 3d
       0.07932952 0.063613445 0.031101666 0.057395775
0000d0 8c cd 90 bd f9 f7 31 bd 5a b2 fe 3c 84 83 61 bd
       -0.07070455 -0.043449376 0.031090904 -0.055057064
0000e0 8a 64 a8 3d 0d f9 0e bd 34 7b 9f 3d f6 01 13 3d
       0.08222301 -0.034905482 0.07787171 0.035890542
0000f0 c7 75 1c bd b8 60 b1 bd f6 4c 30 3d c6 5a 70 3d
       -0.03819826 -0.08661026 0.043042146 0.05868032
000100 00 c0 72 3c 00 10 d2 bc d7 04 8e 3d 3f b1 b4 3d
       0.014816284 -0.025642395 0.06934517 0.088228695
000110 3c 58 22 bd b4 ee ae bd 3e 3a 2d 3d ce bd 3c 3d
       -0.039634928 -0.08541623 0.042291872 0.04607945
000120 a2 d3 4c 3d 12 4b 14 3d 7e 26 4c 3d fc 9d e2 3b
       0.050006516 0.036204405 0.049841397 0.006915806
000130 d1 0c a7 bd f5 a5 69 3d 08 5d 6b 3d 9c 37 c4 3b
       -0.081567414 0.057043035 0.05746177 0.0059880745
000140 8b e4 50 bd a7 69 6e 3d 71 33 8f 3d d4 8a 74 bc
       -0.050999206 0.058206227 0.069922335 -0.014925677
000150 e3 0a ac 3d af 18 66 3d d4 7e 13 bd 3d 9a 04 bc
       0.08400514 0.056175884 -0.036009625 -0.008093414
000160 81 e3 95 3c 5a 82 65 3c ff 59 9e 3d 42 c3 34 bd
       0.018296959 0.014008129 0.07732009 -0.044131525
000170 d5 16 de 3c aa 3c e6 bc 91 b0 af 3d 1b a2 00 bd
       0.027110497 -0.028105099 0.08578599 -0.031404596
000180 c0 09 04 3d 6b 04 8b bd 04 71 65 bd 72 11 45 bd
       0.03223586 -0.06787952 -0.056015983 -0.04811234
000190 e2 10 b4 bc 49 b3 88 bd 00 ee 98 ba af b2 a0 3d
       -0.021980707 -0.06674821 -0.0011667609 0.07846581
0001a0 14 0f ae bd 70 ac 66 3c c0 b5 a0 3c d8 65 ae bc
       -0.0849897 0.014079198 0.019617915 -0.021288797
0001b0 22 f7 ae 3c 5b 35 b8 bc 40 8f b0 3c c4 d3 90 bd
       0.021358076 -0.02248638 0.021552682 -0.07071641
0001c0 5b 0e 25 3d 5c a9 89 bd 3b a1 7d 3d 6b 31 a8 bd
       0.040296894 -0.06721756 0.06192134 -0.08212551
0001d0 c8 c2 52 3d d7 09 a0 3d 9c ca 8c bd 5d 44 83 bd
       0.05145529 0.07814377 -0.06874582 -0.06409524
0001e0 eb bc 57 3d a7 dc 94 3d b8 4d 96 3c f3 86 ac 3d
       0.0526704 0.072686486 0.018347606 0.08424177
0001f0 86 74 0d 3d 79 d3 4b bd c2 00 af bd 6d e1 9a bc
       0.034534954 -0.049762223 -0.085450664 -0.01890632
000200 87 e4 0a 3d 1e 11 01 3c 30 69 9f bd bf fc 81 bd
       0.033909347 0.007877616 -0.07783735 -0.063470356
000210 40 4f 5b bb 87 00 3c bd ce 73 72 3d 1b 43 9a 3d
       -0.0033463985 -0.04589894 0.05919247 0.075323306
000220 70 84 8e bd b2 a7 78 3d 8e 3b 3d 3d ed a9 90 3d
       -0.06958854 0.0607068 0.046199374 0.07063661
000230 9c 8e 87 bc 27 1b 82 3d 00 ad 7f 3b d8 6a 9c bd
       -0.016547494 0.06352835 0.0039013028 -0.07637566
000240 1e d1 ac bd 08 5d b0 3c d3 79 5a bd 27 af f0 bc
       -0.084383234 0.021528736 -0.053338837 -0.029380394
000250 31 5d 20 3d 2a 34 b4 3c 9d bc a5 bd 8a c7 65 bd
       0.039151374 0.02199753 -0.08092616 -0.0560985
000260 a4 22 8c bc ad 9d a4 3a 91 c1 bb bc 17 b3 42 bd
       -0.017106362 0.0012559198 -0.022919448 -0.047534075
000270 29 a3 4c 3d 44 a5 e4 bb 90 c8 cf bc cd 81 40 3d
       0.04996029 -0.006977709 -0.02536419 0.046998788
000280 ca 75 4e 3d 79 86 46 bd bf d7 45 bd e6 dd 63 bc
       0.0504053 -0.048468087 -0.048301455 -0.013907885
000290 79 f7 87 bd 86 8b fc bc b1 e7 9b bd 00 fb cf 3b
       -0.066389985 -0.030828249 -0.07612551 0.00634706
0002a0 91 3a 95 3d 97 5d 9d 3d 80 27 ac 3a 25 c0 4e 3d
       0.07286561 0.076838665 0.001313433 0.050476212
0002b0 1f a8 82 3d 5f 71 85 bd 9a 6b 32 3d 08 c8 a2 3c
       0.06379723 -0.065157644 0.043559648 0.019870773
0002c0 c8 d0 0b 3c b6 6b 7f bd 15 7b 99 bd 5e 46 22 3d
       0.008533664 -0.06235858 -0.07494179 0.03961789
0002d0 b9 b4 b8 3c 90 45 9a bd 5c 7a 86 bc 20 ac 5d bb
       0.022547113 -0.07532799 -0.016415767 -0.0033824518
0002e0 a7 92 1e 3d 1c c9 a5 bc 94 b3 82 3c 4c b4 9b 3d
       0.038714077 -0.020237498 0.01595477 0.07602748
0002f0 9c bc 04 3d 8e 17 90 bd 9f e7 1d 3d 14 ac ed bc
       0.032406434 -0.07035743 0.03855097 -0.029012717
000300 2a 36 29 3d 78 06 99 3d 88 78 f2 bc 60 c5 8f ba
       0.04131142 0.07471937 -0.02959849 -0.0010968857
000310 db 22 7d 3d fe 9a 0b 3d b3 f1 a0 bc b3 f1 c9 3b
       0.06180082 0.03408336 -0.019646501 0.006162846
000320 ec 40 69 bc 39 a2 93 bb ae be 42 bd 94 d0 c0 bc
       -0.01423667 -0.0045054224 -0.047545128 -0.023536958
000330 5f 60 b2 bd 50 fe cc 3b f1 0f 8d 3d f9 ab 8e 3d
       -0.087097876 0.0062559023 0.06887806 0.06966395
000340 e8 8a 65 bc 9e 7f 75 3d 32 4c 18 3d b8 77 f4 bc
       -0.014010169 0.05993616 0.03718204 -0.029842243
000350 62 7a 1a 3d ce 00 38 3d 3b 83 9a 3d ae f2 f6 bc
       0.03771437 0.044922642 0.075445615 -0.030145016
000360 8e c7 75 bd 84 24 0b bd f6 c1 0c bd 41 d0 9e 3d
       -0.060004763 -0.03397037 -0.034364663 0.07754565
000370 94 56 8a bd e5 67 53 bd a8 b2 51 3d 3f 16 b4 3d
       -0.06754795 -0.051612753 0.05119577 0.087933056
000380 97 d4 91 3d 1f 82 04 bc ea 9d 07 bd b1 0c 13 bd
       0.071206264 -0.008087664 -0.033109583 -0.035900775
000390 e5 42 dc 3c ca 71 a5 bd 96 f5 83 bd 75 d0 84 3c
       0.026887367 -0.08078344 -0.06443326 0.016212681
0003a0 77 8c ae bc 89 a4 5f bc c9 42 11 bd ad 79 1c 3d
       -0.021307213 -0.013650068 -0.035464082 0.038201977
0003b0 4e 6c 43 bd 8a e8 1f 3d 22 68 6c 3d 5c 49 e0 3c
       -0.04771071 0.039040126 0.057716496 0.02737873
0003c0 28 30 96 bc 69 7f ad 3d 16 b4 63 3d f9 4a 1e 3d
       -0.01833351 0.08471567 0.055591665 0.03864572
0003d0 22 93 76 bc cc 02 b9 3b 1c c8 9f bd 0d 12 31 bd
       -0.015049728 0.0056460854 -0.0780184 -0.043230105
0003e0 d5 9c b0 3d cf f3 80 bd 78 f5 b1 bd 5e f4 25 3d
       0.08623663 -0.06296503 -0.086893976 0.04051625
0003f0 2b 85 5e bd a1 d7 ab 3d 90 8d 13 bd ff e6 ac 3b
       -0.054326218 0.08390737 -0.036023676 0.0052765603

encoder.lstm.weight_hh_l0 f4 [512, 128]
000000 5b 0c 50 3d 63 e0 b8 3c 66 1d 78 3d ae aa a6 bd
       0.050793033 0.022567933 0.06057491 -0.08138023
000010 db 29 ad bc b5 eb 7b 3b f1 05 2a 3d d1 1a db 3c
       -0.021138122 0.0038440053 0.041509572 0.026746185
000020 31 35 0e 3d 76 e9 93 3b af 8f a9 bc 50 cb 90 bd
       0.034718696 0.0045139147 -0.020698396 -0.07070029
000030 32 48 f8 bb ee 1f 3a 3d 9b 1e 8f bd e4 95 45 bd
       -0.0075769657 0.045440607 -0.069882594 -0.04823865
000040 82 12 71 bd e7 8e 6d bd 90 aa 95 3d a8 70 f9 bb
       -0.05885554 -0.05799761 0.07307923 -0.0076123066
000050 8c 68 79 bd 59 0f 04 bd 87 2d cb 3a 2a 85 ac bd
       -0.06089072 -0.0322412 0.0015501239 -0.084238365
000060 27 de af bd 54 72 5d bd e2 a8 e1 bc 1d d9 5d 3d
       -0.08587294 -0.05406411 -0.02754635 0.054162133
000070 19 d4 4e 3d 58 f7 e2 3c a1 f8 70 3d f6 8d a7 3d
       0.05049524 0.027705833 0.05883086 0.08181374
000080 e6 49 f6 bc 04 1e 89 b9 0b c7 9c bd b1 7b 8c 3d
       -0.030064534 -0.0002615304 -0.07655152 0.0685953
000090 8c 85 3c bd 5e 1f b3 3d 8a d5 8e bd f1 8b 4b 3d
       -0.046025798 0.08746217 -0.06974323 0.049694005
0000a0 7e 11 cc bb 35 34 54 bd c9 b9 1f bd d6 1c a9 bd
       -0.006227671 -0.0518076 -0.038995538 -0.08257453
0000b0 ae 59 a4 3d 02 ab 9e 3d 00 81 7f bc f3 7e 9d 3d
       0.080249175 0.07747461 -0.015594721 0.07690229
0000c0 8a 29 79 3c 45 bc f2 bb 7f 3b 10 bd 6f d6 8a bc
       0.015207658 -0.0074076974 -0.03521299 -0.016947953
0000d0 b1 32 0b bc d2 07 06 3c 9c 42 53 3d 88 9c 8b bd
       -0.0084959725 0.008180575 0.051577196 -0.06816965
0000e0 dd 18 89 bd f7 3f b5 bc 67 bb 2d 3d db f5 05 3d
       -0.066941954 -0.022125227 0.04241505 0.03270517
0000f0 3a 08 00 bd ef 6e b3 3d 10 1a 5c 3a cd d8 15 bd
       -0.031257845 0.08761393 0.00083962176 -0.03658371
000100 3e a1 72 3d f4 d2 a7 bd 92 79 f0 bc 15 a0 a5 3d
       0.059235804 -0.08194533 -0.029354844 0.08087174
000110 1b eb bd bc 17 6e f0 bc 2d c7 27 bd 5d bc a2 3d
       -0.023183396 -0.02934937 -0.040961433 0.07946084
000120 06 da 99 bd 06 dd 10 bd 38 d1 d9 3b f4 3d cb 3c
       -0.07512288 -0.035367034 0.0066472553 0.024809815
000130 bf 04 23 3d d7 69 4b 3d 86 86 14 3c ac 42 34 3d
       0.039799448 0.049661484 0.009065276 0.044008896
000140 c2 ce dc 3b 50 81 64 3d f9 5c b1 bd 48 d6 ae bd
       0.0067385146 0.055787385 -0.08660311 -0.08536965
000150 71 9f a2 3d e5 5a 3e bd 29 7f 00 bd 79 bd f7 bc
       0.07940567 -0.046473403 -0.03137127 -0.030241715
000160 24 a4 22 bd cc bc 72 3d 3f 2a 95 3c 1d 1d 06 bd
       -0.039707318 0.059262082 0.018208621 -0.03274261
000170 79 e8 58 3d b5 17 a2 bd 60 a7 91 bd 8e d3 ac bd
       0.05295608 -0.07914678 -0.071120024 -0.08438788
000180 fb db 27 3c 1b 11 58 bd c4 7b 8e 3d 66 e6 b4 3d
       0.0102453185 -0.052750688 0.069572 0.088330075
000190 eb 02 99 bd 64 94 53 3d b4 b2 0c 3b e1 d9 af 3d
       -0.0747126 0.05165519 0.002146882 0.08586479
0001a0 e8 27 58 3b 34 ff 87 bd 01 c7 a0 bd 98 83 4e 3d
       0.003298277 -0.06640473 -0.07850457 0.050418466
0001b0 a3 25 56 3d 84 f8 07 bd 83 5b 97 3c c2 ed f8 bb
       0.052281987 -0.033195987 0.018476253 -0.0075967023
0001c0 3c 94 b0 bd 33 2a af 3d e3 85 f4 bb 06 59 10 3c
       -0.086220235 0.08552971 -0.0074622496 0.008810287
0001d0 e3 07 83 3c f2 79 8c 3d c1 18 37 bd fe bd 93 3d
       0.015994972 0.06859197 -0.04470134 0.072139725
0001e0 e7 65 8a 3b 94 6d 91 bd d2 c0 27 bd 5a f7 80 bc
       0.0042235735 -0.071009785 -0.040955372 -0.015742946
0001f0 c0 d5 d9 3c 1e b8 4c 3d a1 45 78 bd d0 67 b3 3d
       0.026591182 0.049980275 -0.06061328 0.08760035
000200 a8 99 24 3d 98 5f 92 3c 13 c0 af 3d 11 11 b2 3d
       0.0401856 0.017867848 0.08581557 0.086946614
000210 9a 90 a7 3c b4 5a 2d bd 2c ff 57 bd 4f 88 93 bd
       0.020454694 -0.04232283 -0.052733585 -0.07203733
000220 c3 b5 a1 3c 38 8a 6d bd 60 91 f8 bc 00 47 75 3d
       0.019739991 -0.057993144 -0.030342758 0.059882164
000230 2d d2 97 3d 23 33 60 3d 78 1c a8 3d d4 1c 92 bc
       0.07413135 0.054736268 0.08208555 -0.017836012
000240 26 39 e2 3b 3f 31 f6 3c ff 8b 98 bd b0 92 ab bd
       0.0069037853 0.03005278 -0.07448577 -0.08377588
000250 66 ef 62 bd 9c 77 83 bd 0f d3 89 3d a5 56 88 3d
       -0.05540409 -0.06419298 0.06729709 0.06657151
000260 2c a3 bb bb 3f 39 61 3d 9c be 3d 3d d7 f7 42 3d
       -0.0057262387 0.054986235 0.046324357 0.04759964
000270 0c 07 75 3d ae 2e e3 3c 23 c9 9c bc 65 6f 2f bd
       0.059821174 0.02773222 -0.019138878 -0.042830843
000280 a5 5d 64 bd 8b 2e 49 3d c8 6a a5 bd d5 53 a9 bd
       -0.05575337 0.049116652 -0.080770075 -0.08267943
000290 bc e3 14 bd 01 16 11 bc c3 22 89 bd 25 d2 74 3d
       -0.036349997 -0.008855344 -0.066960834 0.059770722
0002a0 11 d0 31 3b 6c af a8 bc 6a a5 93 3b 8d f9 f2 bc
       0.0027132074 -0.02059146 0.004505803 -0.02966001
0002b0 77 f3 34 3d 33 a6 11 bd 48 b2 f9 3c 5a 17 81 bd
       0.0441775 -0.03555889 0.030480519 -0.06303282
0002c0 d5 ce f3 3c da f8 16 3d 63 15 b7 3c 95 1a 57 bd
       0.029761711 0.036858417 0.022349065 -0.052515585
0002d0 75 10 67 bd 64 ca 39 3c b7 79 ae bd dd 1a 48 bc
       -0.05641218 0.011339758 -0.08519309 -0.012213436
0002e0 b3 6a d8 bc a8 a5 bf bc 64 b5 0a 3d 1a b8 44 bc
       -0.026418066 -0.02339442 0.033864394 -0.012006784
0002f0 45 84 ef 3c d5 da 79 39 60 53 c3 3a 0d 4f 82 3d
       0.029237876 0.00023828012 0.0014902167 0.06362734
000300 d0 2c c0 bc 07 e0 97 3c d1 e9 9d 3c 79 79 f0 bb
       -0.023458868 0.018539442 0.019276531 -0.0073386994
000310 29 aa 93 3d 55 eb 0a 3d e2 02 1d 3d 52 0c ab bd
       0.0721019 0.033915836 0.038332827 -0.08351959
000320 61 5a 69 bd ea bb 89 3d b3 4f 9b bd 72 d8 b2 bd
       -0.056970958 0.06725295 -0.07583561 -0.0873269
000330 61 c8 76 3d 9f 96 ae bd 1c 9c 13 3c 5d fd 84 bd
       0.06024969 -0.085248224 0.009009387 -0.06493638
000340 bb e5 9a bc 8b c7 8d bd bc 63 9d 3a 5f 9b b4 3d
       -0.018908372 -0.069228254 0.0012007873 0.08818697
000350 5b d3 93 3d 62 11 b7 bc 55 c2 af bd ca 39 fa 3c
       0.07218047 -0.022347156 -0.08581988 0.030545134
000360 82 98 30 3d f8 cd ff 3b 4d 8c 2e 3d b4 cc ac bc
       0.043114193 0.007806536 0.04261427 -0.021093704
000370 11 6e 8c bd 31 53 28 bd 8e f4 c0 bb a8 34 a5 3c
       -0.06856931 -0.041094963 -0.005888528 0.02016671
000380 42 cd 60 bb 51 1c 8e 3d 46 87 86 3c bc 1f c1 bb
       -0.003430203 0.06938995 0.016421925 -0.0058936756
000390 24 be 09 bd e9 fd 9b 3d 6b 7a e8 bc 56 5f e3 bc
       -0.033628598 0.07616789 -0.028378686 -0.02775542
0003a0 41 44 90 bd df ae 7b 3d 9c c1 60 3b 6c 57 3e 3d
       -0.070442684 0.061446067 0.0034295088 0.04647009
0003b0 4f 91 a7 3d 4f a0 83 3d 65 a5 8f 3d 45 ad 8a bc
       0.08182012 0.06427061 0.070139684 -0.016928324
0003c0 59 b1 2e bd f6 d3 de bc ea 52 35 bd 7c 72 3d bc
       -0.0426496 -0.02720068 -0.044268526 -0.01156294
0003d0 f6 b4 70 3d 2a 27 9d bd 49 d4 3a bd 07 7d d3 bc
       0.058766328 -0.076734856 -0.045612607 -0.025816454
0003e0 68 fa 2f 3d 26 31 6d 3d 5f f8 22 bd 55 9b 8c bd
       0.042963415 0.0579082 -0.039787646 -0.06865565
0003f0 3e 32 40 3d 85 f7 98 3d 33 d3 3c 3d b3 de 8d 3d
       0.046922915 0.074690856 0.046099853 0.06927242

encoder.lstm.bias_ih_l0 f4 [512]
000000 23 d0 a7 3d b0 fa a1 bd 0a d7 53 3d 6a 29 6a 3d
       0.08193996 -0.07909143 0.05171875 0.0571684
000010 f8 5f ad bd 15 49 cc 3b f7 47 a2 bd 36 99 36 bd
       -0.0846557 0.006234298 -0.079238825 -0.044579707
000020 ce c5 a3 3d 02 65 4f 3d b1 2f 88 bd d1 4d a6 bd
       0.079967126 0.050633438 -0.066497214 -0.08120311
000030 24 59 98 bd 1b 60 aa bd 91 d4 97 3d a1 f8 5c 3d
       -0.07438877 -0.08319112 0.07413591 0.05394805
000040 c2 8c a6 3d 60 cb 9e 3d 9c 07 88 bd 6a a3 31 bc
       0.08132316 0.077536345 -0.066420764 -0.010842184
000050 a0 54 a3 bd 3d c4 94 3d 73 f7 82 bc f4 f5 6c bd
       -0.07975125 0.07263992 -0.015987134 -0.057851747
000060 61 d4 29 3d 55 0a 09 3d 13 34 b4 b9 0c 2b dc 3c
       0.041462306 0.03345712 -0.00034371074 0.026875995
000070 5e 9a 89 bd bd ac d5 ba 1c 4b 9a bc f6 69 54 3d
       -0.06718896 -0.001630209 -0.018834643 0.051858865
000080 76 c1 9b bd 3b b2 b0 3d 96 6b 74 bd b5 a4 8b 3d
       -0.07605259 0.08627745 -0.059672914 0.06818525
000090 63 f4 35 3d a9 41 8b 3d df d1 84 bd 0e 65 a2 bc
       0.04442252 0.06799633 -0.06485342 -0.019823577
0000a0 c3 b9 d0 bc 5d a3 1f 3d 17 6e 97 3d c1 e5 c7 3b
       -0.025479203 0.038974155 0.07394045 0.006100387
0000b0 37 1b c2 3b bb 51 a2 bd f1 a5 88 3d 67 84 69 3d
       0.0059236544 -0.07925745 0.06672276 0.057011034
0000c0 3b 96 9f bd ee da b0 bd be 2a 97 3c de 83 9a bd
       -0.07792326 -0.086355075 0.018452998 -0.07544683
0000d0 19 3a 85 bc 76 f9 46 bd cb 07 4f bd 2f 6d cc 3c
       -0.016263055 -0.04857775 -0.05054454 0.024954407
0000e0 bb 0d d7 ba ba c8 28 bd 43 c9 7e 3d 8f ab 29 bd
       -0.001640729 -0.041207053 0.062203657 -0.041423377
0000f0 29 00 6b bd ea f8 a5 bc eb e3 33 3c 65 d0 21 bc
       -0.0573732 -0.020260293 0.010979633 -0.009876345
000100 cc bf b3 3d eb fd 82 3d f0 b8 0e 3d c2 25 41 3d
       0.08776817 0.06396087 0.03484434 0.04715515
000110 33 65 3e bd d0 f9 86 bd 7d 8a 06 bd 2e 71 7d bd
       -0.04648323 -0.06590617 -0.032846916 -0.061875515
000120 2e bd a3 3d 09 07 49 bd b8 d3 86 bd 10 ad 15 3d
       0.079950675 -0.049078975 -0.06583351 0.036542
000130 50 bd b3 3d 06 db ad bd 2b 01 44 3d d2 38 85 3d
       0.08776343 -0.08489041 0.047852676 0.06504978
000140 46 a4 3b 3d c1 1e 19 bd 6a cb 6d bd 0d 57 a4 bd
       0.04581096 -0.037382845 -0.05805532 -0.08024416
000150 b9 6f 87 3d 27 45 b0 3d 98 86 b2 3d 81 8d 1f 3d
       0.06613106 0.0860694 0.08717078 0.038953308
000160 19 6e fb 3c 1e 4c a2 3d 8e cb e2 3c a7 6d 45 3d
       0.030692147 0.079246745 0.027684953 0.048200276
000170 b8 fb 05 3c 13 34 bb bb dc dd 9f 3d 5b 55 e1 3c
       0.00817769 -0.005712995 0.07805988 0.027506521
000180 87 91 1a bd 18 f5 5a bd b7 41 46 bd 23 35 0b bd
       -0.037736442 -0.053456396 -0.048402514 -0.033986222
000190 95 20 93 3c 30 e4 47 bd 23 aa 32 bc 1d 90 8e bc
       0.017959872 -0.0488016 -0.010904822 -0.017402703
0001a0 cd 3f fa bc 56 00 a4 bd a0 ca e9 bc 0a 7e 4e 3d
       -0.030548 -0.080078766 -0.028539002 0.05041317
0001b0 b8 e3 68 bc 7d 30 3b bd 04 d2 06 3d 64 f9 9d 3d
       -0.014214449 -0.04570054 0.03291513 0.07713583
0001c0 50 91 a7 bc 70 fd 0e bd e8 ec 80 bd 3d bf d8 3c
       -0.020455033 -0.034909666 -0.06295186 0.026458377
0001d0 11 2b 31 b7 c2 29 ba bc b5 58 c6 bc 51 40 8a 3d
       -1.0560049e-05 -0.02272499 -0.02421222 0.06750549
0001e0 29 ae 0a 3d b7 fc af bd 7e 5c b1 3d ba 98 30 3d
       0.0338575 -0.085931234 0.086602196 0.0431144
0001f0 52 0e a1 3c 36 99 85 3d ec b1 50 bd 6b dd 81 bd
       0.019660149 0.06523363 -0.05095093 -0.0634106
000200 4a 73 2a 3d 62 3e 13 bd 7e 95 6b 3b 50 8f 83 3d
       0.041613854 -0.035948165 0.0035947259 0.06423819
000210 ea a1 89 bd 69 c1 98 bd 99 11 59 3c 96 4f d5 3c
       -0.06720336 -0.07458765 0.0132488245 0.026038926
000220 5e e7 b1 bd d7 d9 45 bd 10 68 83 bd b4 a5 3a 3d
       -0.08686708 -0.04830345 -0.06416333 0.045568183
000230 86 a2 0b bd 6c 58 72 bd 60 81 25 bc d3 a1 73 bd
       -0.03409054 -0.059166357 -0.010101646 -0.0594805
000240 cc 32 b9 bc 0f 17 a5 3d c4 20 0c ba 2f 55 92 3d
       -0.02260723 0.08061039 -0.00053454586 0.07145154
000250 44 a4 93 3d 16 5b 8e 3d ad 04 65 3d 12 35 ed bb
       0.072090656 0.06950967 0.055912662 -0.0072389925
000260 ab 0e ac 3d f5 c4 8e 3d fe c2 94 bc 6e 86 c5 3c
       0.08401235 0.0697116 -0.018159386 0.024111953
000270 c8 ea 76 bd 19 a5 94 bd 2f 9c 16 bd b3 99 c8 3c
       -0.0602825 -0.072580524 -0.036770042 0.024487352
000280 1b 6b 9e bd 6f 1c 48 3d 13 52 4d bb a8 85 02 3d
       -0.077352725 0.04885524 -0.0031329438 0.031865746
000290 27 a7 ac 3d e4 45 ae bd 87 a0 ad bd ae 5a ac bd
       0.08430319 -0.08509424 -0.08477884 -0.08415733
0002a0 f2 db 99 bd 93 eb 69 3d 41 9d 81 3d 61 bb 40 3d
       -0.07512654 0.057109427 0.06328822 0.0470537
0002b0 3a bb 86 bd a8 dd b2 3d 4e 64 83 bd ac 63 6f 3c
       -0.065786794 0.08733684 -0.06415616 0.014611166
0002c0 59 44 8b 3d 4e c8 ac 3d bc 86 a2 3d 23 f3 a5 3a
       0.06800146 0.084366426 0.07935855 0.0012660961
0002d0 78 ac ee 3c aa fc 2d 3d 6f 36 80 bd 94 e8 1e bd
       0.029134974 0.042477287 -0.062603824 -0.038796023
0002e0 be 7c 94 bd bb c4 8f bd 3c 4b e7 3b 2d d2 14 3d
       -0.07250355 -0.07019945 0.007058529 0.03633325
0002f0 96 7b 45 bd 90 4c 09 3d cf b9 03 bd 5a ce 9c 3d
       -0.048213564 0.03352028 -0.032159623 0.07656546
000300 12 b9 21 3c 33 5d 1b 3d 73 84 bc 3c 0d d1 9f bc
       0.009870784 0.03793068 0.023012375 -0.019508863
000310 bf dd b1 3d b2 4a 88 3d eb d3 8f bd 04 35 7c 3d
       0.08684873 0.06654872 -0.07022842 0.061573997
000320 e3 2e 83 bd bf 5e af bd ac a4 7b 3d 18 98 e7 3c
       -0.06405427 -0.08562993 0.06143634 0.028270766
000330 1b d8 62 bd 76 4b 9c bd 2d ef a4 3d 75 4e a1 3d
       -0.055381875 -0.076315805 0.08053432 0.078762926
000340 2c 89 0a 3c 06 a0 03 bd f2 01 0c bd af a9 a8 3d
       0.008455556 -0.032135032 -0.034181543 0.082354896
000350 3d 70 96 3d 4c 24 18 3c 68 f3 80 bc 65 08 9c bd
       0.073456265 0.009285998 -0.015741065 -0.07618789
000360 7b 66 3c 3c db 6f 9f bd bf 65 01 3d 03 78 27 bd
       0.011499043 -0.077850066 0.031591173 -0.040885936
000370 46 b7 6d bd ff fd 90 bd 91 57 80 3d 4c 7c 7c 3d
       -0.05803611 -0.07079696 0.06266702 0.061641976
000380 90 0b b2 3d c3 18 ec bb 95 13 27 bd 18 a0 76 3d
       0.086936116 -0.0072051003 -0.04079016 0.06021127
000390 d4 f1 1d 3d bc da 8d 3d 2f ed 7e 3d 6f a6 8f 3d
       0.038560703 0.06926486 0.062237915 0.070141666
0003a0 e7 05 0e 3d 95 49 b9 bc 0d 21 89 bd ba 1d b4 3c
       0.034673598 -0.022618094 -0.06695757 0.021986831
0003b0 0d 80 aa bd e4 72 99 3c 3a 54 8e 3d 0b 87 ad bd
       -0.08325205 0.018731542 0.06949659 -0.08473023
0003c0 c9 33 a8 bc 64 70 3b 3d da 63 0e bd 9b d9 64 bd
       -0.020532506 0.04576148 -0.034763195 -0.055871587
0003d0 98 8b b9 bc 8f 7a 91 bc d9 f7 14 3d c0 be fa bc
       -0.022649571 -0.017758636 0.03636918 -0.030608535
0003e0 09 41 a9 3d 5c 95 76 3d 84 2f 31 bb c5 b2 0d bc
       0.082643576 0.060201034 -0.0027036378 -0.008648579
0003f0 1b e2 94 3b a6 dc 6b 3d e7 fe fd 3c 72 50 f1 bc
       0.0045435554 0.057583474 0.031005336 -0.029457305

encoder.lstm.bias_hh_l0 f4 [512]
000000 65 f4 52 bc d1 4c 24 3d 18 37 0c bd ca 2f 23 3d
       -0.012875651 0.04011232 -0.03423223 0.039840497
000010 d2 c0 a1 3c 2c 02 af 3c fc 00 58 bd 9b 9b 38 bd
       0.019745264 0.02136334 -0.052735314 -0.045070272
000020 35 80 2b bd ed 0e 81 bd bc 41 7e 3d 81 2e 75 3d
       -0.041870315 -0.06301675 0.062074408 0.059858803
000030 31 a4 3e 3d 2b 5b 21 bd ca 9b 30 3d fd 5e a7 ba
       0.046543304 -0.039393585 0.043117322 -0.0012769398
000040 21 57 17 3c 0c 02 a0 3b 76 31 88 bc d2 23 7d bc
       0.009237082 0.0048830565 -0.016625147 -0.015450435
000050 6d 8c 73 bd 78 be c9 bc e7 7a 9e bb 2c 50 34 3d
       -0.059460092 -0.024626955 -0.0048364284 0.04402177
000060 e6 a1 f6 bc 47 ee 97 bd bc 44 69 3d 83 72 7a 3d
       -0.030106496 -0.07418495 0.056950316 0.061144363
000070 1e e1 73 bd b5 f2 cd 3b d6 51 2a bd c0 42 ed 3b
       -0.05954086 0.0062850364 -0.04158195 0.0072406232
000080 90 ee 05 bd e8 f7 66 3d 7e 19 63 3d e1 cc 07 bd
       -0.032698214 0.056388766 0.055444233 -0.033154372
000090 76 94 95 3d ff ad 32 3d b2 aa 58 3d 16 07 b0 bd
       0.07303707 0.043622967 0.052897163 -0.085951015
0000a0 a1 44 02 bd b5 1a 98 bc bd 40 99 3d 43 84 90 bd
       -0.03180373 -0.018567422 0.07483051 -0.07056477
0000b0 01 ad 66 3d 85 1e ab 3c 9e 47 37 bc 6b 04 72 3d
       0.056317333 0.020888576 -0.011186508 0.059086245
0000c0 2e 3a a4 3d 9d eb 6b bd 1f ee 88 3d 09 7e a9 3c
       0.080189094 -0.057597745 0.06686043 0.020689981
0000d0 24 75 13 3d fe 4b 7c bd 43 d9 a5 bd db fa 39 3d
       0.036000386 -0.06159591 -0.0809808 0.04540525
0000e0 09 0d 82 3d 2a 71 fb bb f1 35 ae bd 08 93 6b 3d
       0.063501425 -0.0076734023 -0.08506382 0.057513267
0000f0 5e c8 28 3d 23 3c 52 bd 9d 38 7f 3d ba 03 e5 3b
       0.04120671 -0.051326882 0.06230985 0.0069889696
000100 ee 8a a4 3d 12 34 aa bd b5 36 ad 3d 5f 58 99 bd
       0.08034311 -0.08310713 0.084577 -0.074875586
000110 88 15 dd 3b 24 be b0 3d e9 71 83 bd 41 d6 86 bd
       0.0067469515 0.086300164 -0.06418211 -0.065838344
000120 63 f8 23 3d 62 05 49 3d a4 cd 34 3d 7c 25 5a bd
       0.040031802 0.0490774 0.044141427 -0.053258404
000130 42 97 b0 3d 54 d0 8e bc 23 c3 6c 3d 57 53 0e bd
       0.086226 -0.017433323 0.057803284 -0.034747448
000140 06 d0 8d 3c a0 06 b0 3d c7 71 08 bd f5 f6 87 3d
       0.017311107 0.085950136 -0.03331163 0.066389
000150 1e 13 bc bb 9e 03 8c bd 1b fa 47 bd 60 35 a8 bd
       -0.0057395836 -0.068366274 -0.048822504 -0.082133055
000160 bf 13 22 3d 68 81 40 bc 52 cd e2 3c b5 28 ac 3d
       0.039569613 -0.011749603 0.027685795 0.08406202
000170 d3 2a 70 3d a8 7f a4 3d 30 6a 81 3d 1a 9c 88 3b
       0.05863459 0.08032161 0.06319082 0.0041689994
000180 59 42 2e bd ea 59 54 bb 6e 48 49 3c 71 ce d0 bc
       -0.042543743 -0.0032402226 0.012285335 -0.025489064
000190 18 8a 47 3d 87 4d 15 bd 57 84 a4 3c c5 47 8b bd
       0.04871568 -0.03645089 0.020082636 -0.06800798
0001a0 58 b6 ae 3d f1 9f a9 ba be a8 b5 bc 42 91 6a 3d
       0.08530873 -0.0012941343 -0.02217519 0.057267435
0001b0 de 7c 64 3d 38 e4 c6 bb 93 32 c6 3c 18 17 95 3d
       0.055783145 -0.0060696863 0.024194038 0.072797954
0001c0 9d 3f 93 bd 46 2d 4d 3d ef 87 dc bc 46 42 38 3d
       -0.07189868 0.050092004 -0.026920287 0.04498508
0001d0 c2 b8 39 bd 3a ff 9f 3d c3 e2 8a bd 5e 06 c0 3c
       -0.045342214 0.078123525 -0.067815326 0.023440536
0001e0 30 9c 50 bd 74 e1 65 bd cb 4f 53 3d 16 51 34 3d
       -0.050930202 -0.056123212 0.05158977 0.044022642
0001f0 08 c5 03 3d f1 93 62 3d 0f d0 8f ba 18 ad 91 3c
       0.032170326 0.05531687 -0.001097204 0.017782733
000200 a6 11 3f bd 76 74 4c 3d 17 62 55 bc 22 45 0e bd
       -0.04664769 0.049915753 -0.013023875 -0.0347339
000210 e0 a0 83 bd 5a 9d 0f 3d a8 fe 4c 3d 6a be 79 3a
       -0.06427169 0.03506217 0.050047547 0.000952697
000220 a8 a2 b1 3d 33 e8 78 bc 3f d0 3f bb 77 b6 86 bd
       0.08673602 -0.015192079 -0.0029268411 -0.06577771
000230 b0 d0 ae bc 9d ae 41 bd e9 21 69 b9 f7 32 82 bd
       -0.021339744 -0.047285665 -0.00022233244 -0.06357377
000240 a4 6a c6 bc 70 8d 83 bd e3 22 2a bd 1d 07 ea 3b
       -0.024220772 -0.064234614 -0.041537177 0.0071419613
000250 1e 2b 01 3c a3 a6 63 bd b3 5a 84 3d 19 7e 4b 3d
       0.007883815 -0.05557884 0.06462612 0.049680803
000260 77 dc 1b bd d4 d3 42 3d 42 96 9a bd 5f 21 a9 bd
       -0.03805205 0.047565296 -0.07548191 -0.08258318
000270 11 98 84 bd 1d 2d 8f bd 4b 4f 5e 3d b0 b0 8d bd
       -0.06474317 -0.069910266 0.05427484 -0.06918466
000280 92 2e 99 bc 47 9c 74 3d 44 d5 a8 3d 1f 34 1d bd
       -0.018698964 0.05971935 0.08243802 -0.038379785
000290 5e 93 29 bd 94 44 4a bd 0c 53 73 3c 3c bb 58 bd
       -0.041400306 -0.049381807 0.014851343 -0.052912936
0002a0 82 f2 17 bd c9 56 21 bd 80 d7 6c bc 7e 74 89 3d
       -0.037096508 -0.039389405 -0.014455676 0.06711672
0002b0 eb e4 f2 3b de 28 82 3d 03 b8 39 3d e4 9d 6d bc
       0.007412543 0.06355451 0.045341503 -0.014502976
0002c0 b2 47 78 bd 2c d7 57 3d c3 06 38 3d 7b 4d 31 3d
       -0.06061525 0.05269544 0.044928323 0.04328678
0002d0 a1 a4 86 bd cf 63 0b 3c 81 7e 6f bd c3 63 4d 3d
       -0.06574369 0.008507683 -0.058470253 0.05014397
0002e0 28 fb b4 bd 47 87 92 bd c3 16 71 bc 79 45 a9 bd
       -0.08836967 -0.07154708 -0.0147148995 -0.08265204
0002f0 0e 41 75 bc b7 db de bc 2c 99 d9 3b 31 b4 80 bc
       -0.0149691235 -0.027204378 0.006640574 -0.015710922
000300 9d bc 53 bd 97 19 41 3d 48 49 5a bd 71 64 81 bc
       -0.051693548 0.047143545 -0.053292543 -0.015794965
000310 1e f4 6b 3d 05 f2 69 3a 09 0b dd 3b 40 be bb bc
       0.057605855 0.00089243083 0.0067457003 -0.022917867
000320 72 d9 3a bb a9 a4 f3 3b fa b3 42 bd 16 5e 80 bd
       -0.0028510955 0.0074354005 -0.04753492 -0.062679455
000330 78 f3 13 bd ff 40 ee 3c b1 5b 6b bc c4 b4 1a bd
       -0.03612086 0.029083727 -0.014365123 -0.037770048
000340 2d af 90 bd 3d e0 92 3d d8 d9 8e bd 75 23 9a bd
       -0.07064662 0.07171676 -0.06975144 -0.07526294
000350 3c 99 f8 3b 34 ec 77 bd ec a0 aa bc 48 0d 9a bd
       0.0075866263 -0.060527995 -0.020828687 -0.075220644
000360 3b 21 3f 3d 7d 90 81 3b 22 20 2d 3c 3e b2 91 3b
       0.04666255 0.003953992 0.010566743 0.004446297
000370 e6 fc 39 3d 12 fd 64 3d 66 a4 83 3c c2 28 90 bc
       0.0454072 0.05590541 0.016069602 -0.01759756
000380 a1 3c 54 3d 90 95 9c ba d7 59 e9 bc c6 bb 06 bd
       0.051815633 -0.0011946429 -0.028485222 -0.03289392
000390 42 aa 0d bd 66 5f aa 3c 63 69 7c 3c 96 27 9b bd
       -0.0345862 0.020797443 0.0154059855 -0.0757591
0003a0 fd d4 27 3d 72 cb ad bd b0 3c 5f 3d 0d 8d 17 bd
       0.040974606 -0.0848607 0.054501235 -0.03699975
0003b0 41 a7 8e bd 52 96 44 bd c9 b1 a8 bd ec 0c 03 bd
       -0.06965495 -0.04799492 -0.08237035 -0.031994745
0003c0 0b 48 8d bd 13 1e 86 bc e0 2a ac bd 03 95 ac bc
       -0.06898507 -0.016371762 -0.08406615 -0.021067148
0003d0 68 34 c6 3c f8 b9 7e bd ed fb 56 3d 38 3d df 3c
       0.024194911 -0.062189072 0.05248635 0.027250871
0003e0 2f a6 0c 3d 6c cf a8 3d 78 20 99 3d e8 27 59 3d
       0.034338173 0.082426876 0.07476896 0.053016573
0003f0 f5 dc 2d bd d7 a8 60 bc 8e 1d 99 bd be 01 12 3d
       -0.04244705 -0.01371213 -0.0747634 0.035646193

decoder.decoder_step.lstm.weight_ih_l0 f4 [512, 72]
000000 fa 17 74 bd 42 37 94 bc a6 f0 b2 bd f3 5e 8c 3d
       -0.05959318 -0.018092755 -0.08737306 0.068540476
000010 c2 59 06 3d 5b 2f 27 3d a0 65 1f bc 74 81 84 bd
       0.032800443 0.040816646 -0.009728819 -0.06470004
000020 0e b0 53 bd 6e bd 0e bd 6f 03 03 bd 3d 93 14 bd
       -0.05168157 -0.034848623 -0.031985696 -0.03627323
000030 65 2b ca bc 62 a7 ae bd 28 d7 ae bd 1a 3f ea bc
       -0.024678895 -0.085280195 -0.085371315 -0.028594542
000040 36 3c 3e 3c 59 4d 61 3d a9 3c 17 3b c6 07 5a 3d
       0.011611035 0.055005405 0.0023076928 0.05323007
000050 7a 15 ac bd a7 06 9f 3d 0c d9 99 bd 4f f0 67 bd
       -0.08402534 0.07764941 -0.075121015 -0.05662566
000060 b4 a2 8f bd 11 e4 39 bc ad 99 86 bd b8 20 22 bd
       -0.07013455 -0.011345879 -0.0657228 -0.039581984
000070 ec 81 fd 3b d8 97 31 3c 7f 3d a6 bd 52 fa 87 bd
       0.007736435 0.010839425 -0.08117198 -0.06639542
000080 fc c9 7d bd 48 8f e3 bc df 84 08 bc 20 43 a0 3c
       -0.061960205 -0.027778283 -0.00833246 0.019563258
000090 2a 77 05 bd 21 35 50 bd a4 d6 47 3d 9a 31 1c bc
       -0.032584347 -0.050831918 0.04878868 -0.00953331
0000a0 ba 3d 2a bd 7c 3b 16 3d 54 95 e1 3c 84 46 12 3d
       -0.041562773 0.036677822 0.027537026 0.03571178
0000b0 e5 a1 37 bc 9f 12 78 bd 9a 27 36 bd 29 38 3b bd
       -0.011208032 -0.060564633 -0.04447136 -0.045707855
0000c0 82 d4 2b bd d2 e6 83 bc e6 c5 be 3b cb 54 a1 bd
       -0.04195071 -0.016101275 0.005821931 -0.07877501
0000d0 1f 4a 1e 3d ae f2 77 bd ae 09 da 3c 54 0a 20 3d
       0.038644906 -0.06053417 0.026615944 0.03907235
0000e0 67 66 22 3d a2 3a a6 3d c8 a9 1a bd 60 0d 85 bd
       0.03964844 0.08116652 -0.037759572 -0.06496692
0000f0 22 c3 a0 3d 2f 77 8f bb f0 d4 5f bd 9c 61 8d bd
       0.07849719 -0.0043782215 -0.054646432 -0.06903383
000100 19 10 92 bd 97 8c 4a bd 23 e7 8e bd 78 1b ff 3b
       -0.07131977 -0.049450483 -0.069776796 0.007785257
000110 71 cf 2d bd c2 fc f0 3c e1 2f af 3d 7a 25 aa bd
       -0.04243416 0.0294174 0.08554054 -0.08307929
000120 58 85 ac 3b 87 d4 df bb 6c eb 8b 3c dc 12 9d 3d
       0.0052649193 -0.006830755 0.017080031 0.07669613
000130 3c 3e cb bc 41 8e 5e 3d 9d ab 3c bd 3f 7c 2b 3d
       -0.02480995 0.054334883 -0.0460621 0.041866537
000140 21 89 2d 3c b3 44 97 bd fe e7 d9 3c cb 7e 94 bd
       0.010591776 -0.0738615 0.02659988 -0.07250746
000150 11 cc a7 bd b5 35 5e bd f7 44 ba bc 74 0c d7 bc
       -0.081932195 -0.054250438 -0.022737963 -0.026251055
000160 20 8e 0f bd b2 de 84 bc 08 68 90 bd 49 32 0f bd
       -0.03504765 -0.01621947 -0.070510924 -0.034960065
000170 b4 0c a6 bd 1b 21 86 bc 56 41 0f 3a c5 31 82 3c
       -0.08107892 -0.016373208 0.0005464753 0.015892873
000180 25 a5 74 3c 21 23 b1 3d a3 9a ae bd 2e de 99 bd
       0.014931952 0.086492784 -0.08525588 -0.075130805
000190 bd 47 74 3d 1f 69 4f 3d d5 89 af 3d de 51 9f bd
       0.059638727 0.05063736 0.08571211 -0.07779287
0001a0 c2 79 64 3d 49 06 b4 3d 3e d6 b1 bd 2e 1e 63 3d
       0.05578018 0.08790261 -0.086834416 0.055448703
0001b0 37 aa 9d bc 18 73 ad bc 32 06 96 bd 7e 75 9b bc
       -0.019246204 -0.021173045 -0.073254004 -0.018976923
0001c0 11 bf 59 bd bd 66 58 bd 9a 16 27 3d bf 55 9d 3d
       -0.05316073 -0.052832354 0.04079304 0.076823704
0001d0 3a a0 79 3c 5b 9b 87 3d da 4d 3c 3d 66 b6 0b bd
       0.015235955 0.066214286 0.045972683 -0.034109496
0001e0 fa 9a 5a bd bc 19 3e bd 5e 84 8b bd c2 b9 8e bd
       -0.053370453 -0.04641126 -0.068123564 -0.06969024
0001f0 52 34 9f bd 7c 6a ac 3c 87 9b ee bc b8 c1 86 3d
       -0.07773651 0.02104687 -0.029126896 0.06579918
000200 14 54 b2 3d 04 a0 99 3d b2 de 94 bd a0 1e 35 3d
       0.08707443 0.07501224 -0.07269038 0.04421866
000210 35 bc 5e 3d 7e ac 44 3d a6 3e 5f 3d e9 24 7e bc
       0.054378707 0.048016064 0.054503106 -0.01551173
000220 61 45 af 3d 37 5d b5 3b 6a 68 39 3d 3a 63 90 bd
       0.08558155 0.0055347937 0.045265593 -0.07050176
000230 fc 2b ed 3c db 89 b4 3d 6d f4 85 3d e9 b4 2d 3c
       0.028951637 0.08815356 0.06540761 0.010602214
000240 99 c5 a5 bc b6 53 2c 3d 92 cc e7 3b e0 a5 fb 3c
       -0.020235823 0.04207202 0.007073947 0.030718744
000250 c4 9b 6c 3d f7 d7 f6 3c ce 89 24 3d d9 cb ce bc
       0.057765737 0.030132277 0.040170483 -0.025243687
000260 7a 83 1f 3c 18 c5 1e 3a 72 f6 a4 bd ed 7f 43 3d
       0.009735936 0.0006056591 -0.08054818 0.04772942
000270 04 5b 5e bd 0f b9 9c 3d 73 3c 9c 3d e4 c3 43 bc
       -0.054286018 0.076524846 0.07628717 -0.011948559
000280 b4 2d 75 3b 62 37 4a bd ca 8e 1c 3d 87 79 07 bc
       0.0037411274 -0.049369223 0.03822211 -0.0082687205
000290 1d 03 8f 3d 9d bf 0c ba f1 30 a7 bd 67 d3 49 bd
       0.06983016 -0.0005369129 -0.08163632 -0.049273875
0002a0 49 81 9c 3d b1 4d ee 3c 73 21 85 3d d5 c8 1a bd
       0.07641847 0.02908978 0.065005206 -0.037789185
0002b0 64 31 99 3d 92 dc a7 3d 14 55 07 bc ea f0 7e bd
       0.07480124 0.08196367 -0.00826003 -0.062241472
0002c0 69 8c 8d 3d 92 bd a8 bd 76 f3 97 bd 97 0c 71 bd
       0.06911547 -0.08239283 -0.07419483 -0.058849897
0002d0 bf aa 4c 3d 25 f0 11 bd f1 b1 11 3d 34 7e 8f bd
       0.049967524 -0.03562941 0.03557009 -0.07006493
0002e0 b6 c5 71 bd 51 7a b0 bd 4e 49 5b 3c 36 96 6e bd
       -0.059026442 -0.0861708 0.013384176 -0.05824872
0002f0 93 ea 54 3b a3 89 2b 3d ad 20 a4 bc 2b 14 b7 bc
       0.003248845 0.041879307 -0.020035112 -0.022348484
000300 ab 33 a3 3b 63 14 15 3d c3 5b d4 36 c2 91 0f bd
       0.0049805245 0.036396395 6.328775e-06 -0.035051115
000310 04 c1 8f 3c 73 9c 84 3d 08 54 1c bd d4 bd c2 bc
       0.017548092 0.06475153 -0.038166076 -0.023772158
000320 64 c4 a5 bd 07 9c a0 bd 01 b4 ce bc b5 f0 a1 bd
       -0.08094099 -0.0784226 -0.025232317 -0.07907239
000330 53 15 8d 3d 4f 92 44 3d 97 2e 85 3d 20 e7 d2 3c
       0.06888833 0.047991093 0.06503027 0.025744975
000340 25 43 8f 3c 96 f7 2b 3d 76 c5 41 bd be a5 7e 3d
       0.017488072 0.041984163 -0.047307454 0.062169783
000350 76 44 10 bd 98 f0 0d bc 20 9f bd bc 20 f5 33 3d
       -0.03522154 -0.008663319 -0.023147166 0.04393494
000360 f3 db 97 3d 11 49 26 bc 85 1a 95 3d e4 70 51 3d
       0.07414999 -0.010149256 0.07280449 0.05113305
000370 cb af 97 3d 48 93 89 bd e6 2b 44 3d 4f 6e a7 3d
       0.07406577 -0.06717545 0.047893427 0.081753366
000380 0b 38 0d 3d af d2 82 bd 79 af e0 ba 52 53 fa 3c
       0.034477275 -0.06387841 -0.0017142139 0.030557308
000390 2d 7b 04 3d a2 1b 19 3c cd 75 cf 3b 70 95 5f bc
       0.032344032 0.009344967 0.0063311816 -0.0136464685
0003a0 60 96 e6 bc cf ae 70 3d 8e fd c6 3c 21 ea ab bd
       -0.028147876 0.05876046 0.024290826 -0.08394266
0003b0 84 b0 41 3d e5 e3 a9 bd d3 99 aa bd 99 8e 94 3d
       0.04728748 -0.082954206 -0.08330121 0.07253761
0003c0 e9 45 4d bd f1 e7 72 3d 0d cf 95 bd 46 c3 0a bd
       -0.0501155 0.059303228 -0.073148824 -0.033877634
0003d0 a0 a5 66 3d b6 23 a5 bd 58 77 1a bd 52 ef 20 bd
       0.056310296 -0.08063452 -0.03771147 -0.039290734
0003e0 c1 77 b4 3d 8e 9e 28 bd a2 f7 67 bd d4 ad b2 3c
       0.08811904 -0.041166835 -0.056632645 0.021811403
0003f0 b4 23 96 bd 38 7f 18 bd a9 46 36 bd 87 fd c2 bc
       -0.073310286 -0.0372307 -0.04450098 -0.023802532

decoder.decoder_step.lstm.weight_hh_l0 f4 [512, 128]
000000 29 25 55 bd 67 41 5c 3c a1 04 f7 3b ef d4 80 3b
       -0.05203739 0.0134433275 0.0075383936 0.0039316337
000010 17 38 af bc 54 a4 5d bc 79 ce ae bd fe 5f 73 bb
       -0.02138905 -0.013527948 -0.08535475 -0.0037136073
000020 9f 8a 8e bd f1 23 1a bd ac 09 71 bd a7 93 46 bd
       -0.069600336 -0.037631933 -0.058847114 -0.048480656
000030 5c 28 9e bb 33 7d a4 3d 83 ac 5a 3d 84 fe 0e bd
       -0.0048265886 0.08031692 0.053387176 -0.034910694
000040 a7 c2 9d bd 6b 36 ea 3b 56 51 e9 bc 43 c6 aa 3d
       -0.077031426 0.0071476004 -0.028481167 0.08338597
000050 55 69 92 3c d3 05 4e 3d a9 65 3f bd 40 81 40 bd
       0.017872492 0.050298523 -0.04672781 -0.046998262
000060 2b b4 54 39 35 41 13 3c 62 c7 7e 3d 90 7b 9b bd
       0.00020285013 0.008987715 0.062201865 -0.07591927
000070 0b 6d a9 3c 95 44 87 bd 81 fb 33 bd f9 0d 2d 3d
       0.020681879 -0.06604878 -0.043941025 0.042249653
000080 07 1b 2e 3d e3 82 37 3c fe 6b 86 bd 68 a8 8b 3d
       0.042506244 0.011200639 -0.065635666 0.0681923
000090 a3 04 83 bd a6 1a 2c bd ce 52 32 3d 40 d1 25 bd
       -0.06397369 -0.0420176 0.043536 -0.04048276
0000a0 95 45 c3 3c d8 b0 87 bd 01 c4 8a bc 56 90 5c bd
       0.02383689 -0.06625527 -0.016939165 -0.053848587
0000b0 1e 13 0f 3c 14 d4 48 3b 07 3d 2c 3d 47 57 8a 3d
       0.008732585 0.0030643987 0.042050388 0.06754928
0000c0 27 0c 16 3a 64 3f 95 bd e3 a6 70 3d ea 7f 35 bc
       0.0005723857 -0.072874814 0.058752906 -0.01107786
0000d0 ca 0f 1b bc ce b7 22 bd 01 eb bc 3c eb 4e 12 bd
       -0.009464214 -0.03972607 0.023061277 -0.035719793
0000e0 9c f2 45 bd 8a bf 62 3c 47 a0 74 bd 0a bd a3 bc
       -0.048327073 0.013839612 -0.059723165 -0.019987602
0000f0 ad 71 9a bd 2a a6 8d 3d 40 55 9c bd 6b d3 8a bc
       -0.07541213 0.06916459 -0.07633448 -0.016946515
000100 93 37 a9 3d 9e 67 a9 bd b0 14 66 3d b9 40 ef 3c
       0.08262553 -0.082717165 0.056172073 0.029205667
000110 7f b9 44 bd 30 54 8a 3c 4d e3 1f 3d 0c b2 7d bd
       -0.048028465 0.016885847 0.03903513 -0.061937377
000120 06 a0 7f bb fe 52 85 bd 50 16 4a 3d 9d 09 b1 bd
       -0.0039005294 -0.0650997 0.049337685 -0.08644412
000130 cb 82 bf bc b2 4a 5e 3d 0f fe ba bb ac c0 5f bb
       -0.023377797 0.054270454 -0.0057065557 -0.003414194
000140 f4 c0 49 bc 38 76 5e bd bd 8e aa 3b b9 97 6e bd
       -0.01231407 -0.05431196 0.005205004 -0.058250163
000150 c2 df 7c bc 3a f4 23 3d 65 7b ef bc ca b3 a2 3c
       -0.015434207 0.040027834 -0.029233644 0.01986112
000160 81 aa e3 3c d3 e0 36 bd 71 5d 5e 3b 59 3f 3a 3d
       0.027791264 -0.044648003 0.0033930207 0.04547057
000170 bc c0 27 3d f8 2e aa 3c 9a c8 37 bd ab 0f ac 3b
       0.04095529 0.02077435 -0.044869043 0.005250891
000180 6d a9 a5 bd d8 53 98 3d 17 1a e3 bc cd 9b 9d 3d
       -0.08088956 0.07437867 -0.027722402 0.07695732
000190 01 a7 b3 3d 3e ab c2 bb fa 7d 45 bd 95 85 2f bd
       0.08772088 -0.005940824 -0.048215844 -0.042852003
0001a0 f9 15 9d bc a7 3a aa bd 6c a3 a3 3d db a1 bf bc
       -0.019175516 -0.08311968 0.079901546 -0.023392608
0001b0 94 c5 63 bd 4b bf 39 bd 10 a4 38 3d ba bd 75 3d
       -0.055608347 -0.045348447 0.045078337 0.05999539
0001c0 45 99 f5 3c 07 07 87 bd d2 96 26 bd fc 86 92 3c
       0.029980311 -0.06593137 -0.040671177 0.017886631
0001d0 14 66 81 bd 38 02 72 3d 2e 4f 97 bd 9b 10 a9 3c
       -0.06318298 0.059084147 -0.07388149 0.0206378
0001e0 b4 91 bc 3c 5a 86 73 3d 33 3a 58 bd 9b d6 e3 bc
       0.023018695 0.0594543 -0.052789878 -0.027812293
0001f0 ed 51 9a bd e7 53 de 3a 87 d8 b3 bd db e4 e5 3c
       -0.07535157 0.0016962261 -0.08781534 0.028063228
000200 29 25 a1 3d dc 1a ae bb a8 54 81 3d 6c 64 90 bd
       0.07868416 -0.0053132605 0.06314975 -0.07050404
000210 b1 3b 94 bb c9 e6 96 bd 3c d4 88 bd 5c c3 0a 3d
       -0.0045237173 -0.073682375 -0.066811055 0.033877715
000220 36 e3 91 3d 1c 41 ab bd 76 23 46 3d 74 e9 2b bd
       0.07123415 -0.08362028 0.048373662 -0.041970685
000230 cb 71 e9 bc b7 88 2c 3d 74 8b d5 bb 1a 49 74 bd
       -0.028496644 0.04212257 -0.0065168682 -0.059640028
000240 a6 88 95 3d 79 52 91 bd 09 3b 74 bd 77 06 04 bc
       0.07301454 -0.070958085 -0.059626613 -0.008058182
000250 dd 33 c2 bb e3 af 36 bd 24 85 2c bc 8c 28 8b bc
       -0.0059265927 -0.044601332 -0.01052979 -0.016987108
000260 bd e0 88 3a 34 9d 8c bd 6f 86 6e ba 18 60 80 bd
       0.0010442954 -0.068659216 -0.00090990117 -0.062683284
000270 6c 49 83 bc 00 79 19 3d c3 9b 2a 3d a6 0c 83 3d
       -0.016026221 0.03746891 0.041652452 0.06398897
000280 7a 64 51 3d d9 e2 42 3d 84 0c 7e 3d 67 c4 93 3d
       0.051121213 0.04757962 0.062023655 0.07215195
000290 ac 91 33 3b 8a 72 b8 3c b0 4a ec 3b ea d6 71 3d
       0.002740006 0.022515554 0.007211052 0.05904285
0002a0 e5 fa 81 3d 72 aa 60 bd c5 70 97 3d 2f ea 12 3d
       0.063466825 -0.05485005 0.07394556 0.035867866
0002b0 8b 00 29 bd c9 2d 15 3d 2d 9f 12 bd fd 30 dd bc
       -0.041260283 0.036420617 -0.035796333 -0.027000898
0002c0 74 ce ea 3c 81 b0 a7 bd 32 5b 5e bd 37 9e ab bc
       0.028662898 -0.08187962 -0.05428619 -0.020949466
0002d0 62 95 a2 bd e8 c1 30 bd cb b9 02 3d 7d 58 f0 bc
       -0.07938649 -0.043153673 0.031915467 -0.02933907
0002e0 91 aa 42 3d 13 3b bc 3c 85 ac 36 bd 95 d1 30 3c
       0.047525946 0.022977388 -0.04459812 0.010792156
0002f0 ce a3 b3 bc 96 5a 8a bd c4 af a3 3c c1 81 9d bd
       -0.021928694 -0.06755559 0.019981273 -0.07690764
000300 35 db dd bc 4f 01 a5 3d 42 6e 33 3d 21 aa a4 bd
       -0.027082065 0.0805689 0.043806322 -0.08040262
000310 90 27 3a bc f9 8a 57 3c f4 76 23 bd fa e4 83 3d
       -0.0113619715 0.013155692 -0.039908364 0.06440158
000320 da f2 6d 3d c5 d1 67 3d 22 92 3a bd e1 3c 8d 3d
       0.05809293 0.056596536 -0.04554952 0.06896377
000330 6d a6 68 bd 51 f8 21 bd 58 b5 4b bc 5c f3 7c bd
       -0.05679934 -0.039543454 -0.012433372 -0.061755523
000340 ae 23 91 bd 5c d2 3f 3c f2 ba 7c bd d1 4e 1a bd
       -0.070868835 0.011707868 -0.061701722 -0.03767282
000350 8e 33 84 bb 42 cf 2a 3d cd 80 a2 3d 9e e2 8c bb
       -0.004034466 0.041701563 0.07934723 -0.004299476
000360 70 c0 14 bb c1 8d 1e bd ed 28 96 3d 7e fd 29 bd
       -0.002269771 -0.038709406 0.07332025 -0.041501515
000370 18 d9 a8 bd af 59 9a bd d9 a7 be 3c 42 c1 4e 3d
       -0.08244532 -0.07536637 0.023273395 0.050477274
000380 f0 a0 71 3c 6f 33 9c 3c 80 18 94 bd 83 d4 92 3d
       0.014747843 0.019067494 -0.072312355 0.0716944
000390 af 1c 6b bc 07 2d 88 bd 1e 61 4c 3d 26 1f f6 bc
       -0.0143501 -0.06649213 0.049897306 -0.03004415
0003a0 d3 5f 9e bd 0d 5e 54 bd d2 d8 99 bd 3b df 7d 3c
       -0.07733121 -0.051847506 -0.07512058 0.015495117
0003b0 e1 56 0d 3d 99 7d af 3d 43 a1 82 3d 97 27 a5 3d
       0.034506682 0.08568878 0.063784145 0.08064192
0003c0 9f 19 9e bc f4 f0 07 bd 97 c9 1c 3d 48 fc b3 3d
       -0.019299326 -0.033188775 0.03827819 0.08788353
0003d0 41 61 b1 3d 8b 49 7c 3d a5 2c 23 bd 8d 14 1b 3d
       0.08661128 0.061593574 -0.0398375 0.037861396
0003e0 b8 35 a0 bd 41 47 56 bc 66 81 93 3d eb 2e 88 3d
       -0.07822746 -0.013078512 0.07202415 0.06649574
0003f0 04 69 8e 3d 48 36 04 3d df 93 06 bc e8 f2 23 3c
       0.06953624 0.03227833 -0.008213966 0.010006644

decoder.decoder_step.lstm.bias_ih_l0 f4 [512]
000000 fe c5 67 3d e6 ab 3f bc ab 34 00 bd 0a 32 52 bd
       0.056585304 -0.011698699 -0.031300228 -0.051317252
000010 ef 51 80 3d f2 7a 95 3b 30 ef 76 bb 6f 00 43 bd
       0.062656276 0.0045617754 -0.0037679188 -0.047607835
000020 d8 04 0a 3d 42 73 d0 3c 64 b4 78 bd 7e 25 ab bd
       0.033696026 0.025445584 -0.06071891 -0.083567604
000030 02 14 82 3c bc 7b 3d bd c9 37 0e 3d dd 4e 81 bc
       0.015878681 -0.04626058 0.03472117 -0.015784675
000040 59 9c 90 bd 89 01 72 bd 70 ae c5 b9 69 30 f1 bb
       -0.07061071 -0.059083495 -0.00037704734 -0.0073605073
000050 51 18 ed bc 88 28 35 bb 13 fe 2d bb b7 02 a4 3d
       -0.028942259 -0.0027642567 -0.0026549145 0.0800833
000060 67 13 df bc 87 36 c5 3c da ce 3d bc d0 5b 84 3d
       -0.027230931 0.024073852 -0.011584962 0.06462824
000070 33 47 1d bd 5d ac d3 3c 66 e6 5e bb ab d2 63 bd
       -0.03839798 0.025839025 -0.003401184 -0.05562083
000080 91 ec 15 bd ca 15 16 bd 2e 9e b4 bd 99 f4 f7 bc
       -0.03660256 -0.036641873 -0.08819233 -0.030268
000090 76 50 54 bb b2 09 70 3b 98 3f 4c 3d af d5 9b 3d
       -0.0032396591 0.0036626873 0.049865335 0.07609116
0000a0 67 c3 88 3d 5d 7b 5a bc ef 57 03 bd d4 63 30 bd
       0.06677895 -0.013335076 -0.032066282 -0.043063954
0000b0 08 c3 45 3d 96 fe 71 3d 82 ab 83 3d fb b0 e8 bc
       0.0482817 0.059080683 0.06429197 -0.028404703
0000c0 d4 e6 94 3c 7b b3 8f bd 5b 30 1c bb f5 84 8d bd
       0.018176474 -0.07016655 -0.0023832533 -0.06910125
0000d0 9c ca 6d 3d 0f 39 5f bb 9a f4 8e bd c6 35 0e bb
       0.05805455 -0.003406111 -0.06980248 -0.0021699532
0000e0 f1 60 98 3c 3b 5f 9c 3d 7c 62 1e 3d ea 8e d4 bc
       0.018600913 0.07635351 0.03866814 -0.025947053
0000f0 c4 40 99 3c 84 c2 ab bc cc a2 5b 3d ed cc c9 bc
       0.01870764 -0.020966776 0.053622052 -0.024633849
000100 be 6d 7c 3c 78 8d 53 3d dd e4 43 bd 5a c4 58 bd
       0.015407024 0.051648587 -0.047825683 -0.05292163
000110 f6 65 d2 3c ca 6f 9f bd a2 c4 11 3d 33 53 ab 3c
       0.025683384 -0.07784994 0.035587914 0.020913696
000120 a0 d1 fc bc c7 c6 bc bc f0 a2 84 bd fb 39 3e bb
       -0.030861676 -0.023044003 -0.0647639 -0.0029026258
000130 f8 e9 57 3d 91 8f 9e bd be 51 6d 3d 16 95 07 3d
       0.052713364 -0.07742227 0.057939284 0.033101164
000140 66 ea d1 bc 0d a5 ef 3c 37 82 4d 3d a7 c9 03 3d
       -0.025624465 0.029253507 0.05017301 0.032174733
000150 4d 0b 22 3d b2 d2 51 3d 9f 2a 6e bc 37 cf e6 3b
       0.03956156 0.051226325 -0.014536529 0.007043745
000160 9e 2a 38 bc 11 a0 9b 3c 3b bd 89 3c 07 da 83 bd
       -0.0112406295 0.018997224 0.016813865 -0.0643807
000170 2a 8c 86 3d 7a 09 01 bd b6 d8 93 bd b4 14 94 bd
       0.06569703 -0.03150318 -0.07219069 -0.07230511
000180 53 04 13 3a 74 7c db 3b 2f ba 15 3d 6f 1a aa bd
       0.00056082493 0.0066981856 0.03655451 -0.08305823
000190 fa 2f 64 3d 65 c4 a2 bd cb e0 52 bd 57 98 3a bd
       0.055709817 -0.079476155 -0.05148391 -0.04555544
0001a0 7a c7 eb 3c 5a e2 7f 3d a5 d2 8c bd e0 20 ff 3c
       0.028781641 0.062471725 -0.06876115 0.031143606
0001b0 89 81 b4 3d c9 d8 98 3d 54 ed 42 3d 51 56 29 bd
       0.08813769 0.074632235 0.047589615 -0.041342083
0001c0 7a b5 b3 bc 27 7b 39 bd 97 a2 9a bc 0a d2 fc b8
       -0.02193712 -0.045283463 -0.018876357 -0.00012055419
0001d0 c8 a3 dc bc 5f 18 0e 3d 15 c7 db 3c e6 af 1e bc
       -0.026933566 0.03469121 0.026828328 -0.009685492
0001e0 6c 0a 3e bd a5 b3 bf bc 4c 9a 98 3d 0f 66 0b 3b
       -0.046396658 -0.02340109 0.07451305 0.0021270548
0001f0 f1 98 2e 3d bc 95 a3 bd 27 27 74 3d 84 e1 84 3d
       0.042626325 -0.07987544 0.05960765 0.06488326
000200 52 4f e9 3c 1f 2d 35 3d 03 bc a4 bd fa 1a 25 3d
       0.028480206 0.044232484 -0.08043673 0.04030893
000210 f1 79 64 3c 28 10 93 bd b1 dd 8f bd 58 52 20 bd
       0.013945089 -0.07180816 -0.07024706 -0.03914103
000220 a5 09 a2 3d e6 9f 7e 3c a3 e0 63 bb 11 2e 78 3d
       0.07911996 0.015541052 -0.0034771345 0.060590807
000230 88 66 4a bd 8a 32 6c 3c 54 27 f7 3c a8 4f ae 3d
       -0.049414188 0.014416346 0.03017012 0.08511287
000240 3e a3 8f bd 06 33 b4 bd 8f a0 8c bc e2 ef 9c 3d
       -0.07013558 -0.087987944 -0.017166404 0.076629415
000250 0d 20 97 bd 84 49 6c 3c 5a 65 a0 bd dc b7 03 3d
       -0.0737916 0.014421824 -0.07831831 0.032157764
000260 cc 5f 02 3d 3a eb 93 bb f2 67 4d bd 3d d9 00 3d
       0.03182964 -0.004514125 -0.050147958 0.031457175
000270 8f e0 5e 3d b9 54 02 3d 88 8b 5a bd 07 67 f4 3b
       0.054413375 0.03181908 -0.053355724 0.007458571
000280 eb 3f 30 ba 01 94 7d ba 71 43 a9 3d dc 44 ae 3d
       -0.00067233917 -0.00096732384 0.082648166 0.08509228
000290 ad 33 9b bd d6 a4 86 bd 2a 69 68 bd fe 5d b2 bd
       -0.07578216 -0.06574409 -0.056740917 -0.08709334
0002a0 73 4f f5 bc 9a 2b 8b bd 12 ad 87 bd 4b 20 82 3d
       -0.02994511 -0.06795426 -0.066248074 0.06353816
0002b0 ab 59 7e 3d 56 67 40 3d 51 a5 09 3c a9 10 7d bd
       0.062097233 0.04697355 0.008401231 -0.061783466
0002c0 2b db 36 3c 01 a1 b4 bc 0a 89 5b b9 b7 a9 28 3d
       0.011160652 -0.022049429 -0.00020936519 0.041177478
0002d0 0b 14 8e 3d d0 f4 49 bd 41 d6 a3 3d 3f 63 e6 bb
       0.06937417 -0.049305737 0.0799985 -0.007030874
0002e0 03 fc 73 3c a2 c1 69 3d 13 0d 22 bc 0a 9e 0a bd
       0.014891627 0.05706943 -0.009890812 -0.033842124
0002f0 8c 47 7d bd 02 49 4e bc ab 45 24 bd 88 4d 62 bd
       -0.06183581 -0.012590649 -0.040105503 -0.05524972
000300 5b 4e 15 bc 3d fb 48 bd 98 fd 07 3d 21 06 8f 3d
       -0.00911292 -0.049067724 0.03320083 0.06983591
000310 a8 af 70 3b a4 be 24 bd b0 3d 88 bb 1f 63 36 3c
       0.0036725793 -0.04022087 -0.0041577443 0.011132031
000320 11 e4 95 3d af e4 1f bd 48 90 ac 3d 2e 53 77 3c
       0.07318891 -0.03903645 0.08425957 0.015095515
000330 12 30 54 bd 43 cd b1 bb 62 e8 63 3d 66 eb 9a 3d
       -0.051803656 -0.0054260804 0.05564154 0.0756443
000340 09 4b 9b bc e8 f3 28 bd 17 19 a0 bd 4f 81 9e ba
       -0.018956678 -0.041248232 -0.078172855 -0.001209298
000350 22 42 ab bc 63 4b 3a 3d 36 7d 16 3d 9a 7f b5 bc
       -0.020905558 0.04548205 0.036740504 -0.022155572
000360 ba 14 06 3d bb cf 05 bc 06 20 c4 3c 4c 93 3d bc
       0.03273461 -0.008167203 0.023941051 -0.011570763
000370 33 3c 5c 3d f2 cf 4e bc cb d6 f0 3b 2a fd 99 bd
       0.053768348 -0.01262282 0.007349824 -0.0751899
000380 84 f7 4a bd a7 b2 80 bd ec 10 4d bd 27 e2 5d 3d
       -0.049552456 -0.06284075 -0.050064966 0.054170754
000390 1e e1 ae 3d 57 5d 5c 3d a0 21 32 3d 81 6d 07 3d
       0.085390314 0.053799953 0.0434891 0.033063415
0003a0 bf 4e 9d bd c8 4a 94 3d 66 e2 b2 3d ad e8 a4 3c
       -0.07681035 0.07240826 0.08734588 0.02013048
0003b0 ae 47 ac 3d 4a 9e 62 bd 37 a6 a7 ba 50 4c ae bc
       0.08412109 -0.055326737 -0.0012790625 -0.021276623
0003c0 0b 42 ce 3c 98 2e 8d 3d d7 4b a5 bd 42 16 82 bd
       0.025177976 0.06893653 -0.08071106 -0.063519016
0003d0 70 c8 85 bd 6f a3 1a bc 46 a4 93 bd f7 b2 23 bd
       -0.06532371 -0.00943838 -0.07209067 -0.039965596
0003e0 a7 4c 95 bd 08 83 21 bd 4b 64 c3 3c f6 90 4d 3d
       -0.07290011 -0.0394316 0.023851534 0.050187074
0003f0 39 39 5f 3d ff ac 1d bd f5 9c 06 bc dd 6f 94 3d
       0.05449793 -0.03849506 -0.008216132 0.07247899
